weight.pt (torch, 125998 bytes, 22 tensors)

layer1.0.weight f4 [16, 3, 3, 3]
0	0x3ad48e83	0.0016216788
1	0xbe6f9281	-0.2339573
2	0x3de4c021	0.11169458
3	0x3d2b9717	0.041892137
4	0xbe2f5081	-0.17120554
5	0x3ca33265	0.01992149
6	0xbe10c1f3	-0.14136486
7	0xbe331bd7	-0.17491089
8	0xbda4b8e6	-0.08043079
9	0x3e0d6ac6	0.13810262
10	0xbe589f24	-0.21154457
11	0x3e2a7dbf	0.16649531
12	0xbd52acb3	-0.05143423
13	0x3e23aca7	0.1598383
14	0x3dd6ccf7	0.10488313
15	0x3d393564	0.045216933
16	0xbe3bd7a1	-0.18343975
17	0xbe39d9bd	-0.18149467
18	0xbe13f6bd	-0.14449592
19	0x3e1f505e	0.15558001
20	0xbe192cdf	-0.14958523
21	0xbe12d7d1	-0.1434014
22	0x3e051beb	0.12998931
23	0xbd3e25bc	-0.046422705
24	0x3da7a912	0.081865445
25	0xbdbc608b	-0.091981016
26	0xbe0ae883	-0.13565259
27	0x3c2d0698	0.010560654
28	0xbe281e4e	-0.1641781
29	0xbe11cf11	-0.14239146
30	0xbde15db7	-0.11004203
31	0xbda28a63	-0.079365514
32	0xbd1b4bd5	-0.037914116
33	0x3dd6a0d8	0.10479897
34	0x3d04f05d	0.03245579
35	0xbd114cc9	-0.03547362
36	0xbdb788f3	-0.08961668
37	0xbe0061ec	-0.12537354
38	0xbe3e9ad2	-0.18613747
39	0x3d63a682	0.055578716
40	0x3e13d733	0.1443756
41	0x3c8e61ae	0.017380562
42	0xbcd88106	-0.02642871
43	0x3e5078f8	0.20358646
44	0xbcd60ba6	-0.026128601
45	0xbcc2d16f	-0.023781506
46	0x3e137a31	0.14402081
47	0xbe09a183	-0.13440518
48	0x3df4b017	0.11947649
49	0x3c5e3f93	0.013564962
50	0x3d5d371a	0.054007627
51	0x3e29a47c	0.16566652
52	0x3d2e48ab	0.04254977
53	0x3e46af8d	0.19402905
54	0xbdb4746b	-0.088112675
55	0x3aa8c1de	0.001287516
56	0xbdf8bc7c	-0.121453255
57	0x3e467108	0.19379056
58	0xbe338e6d	-0.175348
59	0xbd7c301b	-0.061569314
60	0x3e0d5755	0.13802846
61	0xbcfd65d6	-0.030932348
62	0xbe105723	-0.1409574
63	0x3e4566bd	0.19277473
64	0xbe0318e4	-0.12802464
65	0x3de0c8e0	0.10975814
66	0xbbec1fb9	-0.00720593
67	0x3e1e4796	0.15456995
68	0xbdc8c84c	-0.098038286
69	0x3e009441	0.12556554
70	0x3dc60279	0.0966844
71	0x3e09545a	0.13411084
72	0x3c6421f5	0.013924112
73	0xbd9a6974	-0.07539645
74	0xbe3f8c93	-0.18705969
75	0x3e340fe4	0.17584187
76	0xbe0709ab	-0.13187282
77	0xbdc2d74e	-0.09513722
78	0xbe1115b3	-0.14168434
79	0x3e1e5b6d	0.15464564
80	0xbd9a2e7c	-0.075283974
81	0xbd59c15c	-0.053162917
82	0xbc47c83e	-0.012193738
83	0x3dea0dd9	0.114284225
84	0x3e3b1329	0.18269028
85	0x3dcca6ac	0.09992728
86	0x3db8deae	0.09026848
87	0x39a13c43	0.00030753211
88	0xbcaf379e	-0.021388825
89	0x3e163ad6	0.14670882
90	0x3b94ca9a	0.0045407536
91	0xbd059fa9	-0.032622967
92	0xbd2297f9	-0.039695714
93	0x3e0dd4f5	0.13850768
94	0x3d85283f	0.06501817
95	0x3db3c949	0.087786265
96	0xbe173144	-0.14764887
97	0xbe05ac94	-0.13054115
98	0x3dc216b6	0.09476988
99	0x3e121273	0.1426485
100	0x3e36394d	0.17795296
101	0x3e0ca4a4	0.1373468
102	0x3ace9afc	0.0015762742
103	0xbe3ce63a	-0.184472
104	0xbe33f69f	-0.17574547
105	0x3be9de9c	0.007137133
106	0xbd8cea8b	-0.06880673
107	0x3e08351b	0.13301508
108	0xbe2f2d44	-0.17107111
109	0x3d83e8d9	0.064408965
110	0x3e0c4302	0.13697436
111	0x3df6dd52	0.12053932
112	0x3e50df60	0.20397711
113	0xbd85c2f6	-0.065313265
114	0x3d95c9af	0.07313859
115	0x3988185f	0.000259581
116	0x3e0b96f6	0.13631806
117	0x3dd4a2a8	0.10382587
118	0x3debd272	0.11514749
119	0x3e1e5104	0.15460593
120	0x3db824cc	0.089913934
121	0x3e466cfa	0.19377509
122	0xbd8dd827	-0.069259934
123	0x3e3e85d8	0.18605745
124	0xbe03d9a4	-0.12875992
125	0x3e2b2c4e	0.1671612
126	0xbd10a9bc	-0.03531812
127	0xbdaad7cb	-0.083419405
128	0x3dc8a4ef	0.097970836
129	0x3db54192	0.08850397
130	0x3dc692b5	0.09695951
131	0x3d82a45b	0.063790046
132	0x3d5fc61b	0.054632287
133	0x3e3043b9	0.17213334
134	0xbe200d22	-0.1563001
135	0xbd1d7e52	-0.038450547
136	0x3d8e415c	0.0694606
137	0x3dceaf0d	0.10091982
138	0xba83e573	-0.0010062888
139	0xbe144564	-0.14479595
140	0xbd33a126	-0.043854855
141	0x3dbb2b57	0.09139126
142	0x3b59d917	0.0033240968
143	0xbdca6e91	-0.0988437
144	0xbbf57df3	-0.007491821
145	0x3d9e9072	0.077423945
146	0x3e052bdf	0.13005017
147	0x3d77ba25	0.060480256
148	0xbe2e599a	-0.17026368
149	0x3e128dc0	0.14311886
150	0x3c44add9	0.012004339
151	0xbe2a35bc	-0.1662206
152	0xbe1309c9	-0.14359201
153	0xbd07d67d	-0.033163536
154	0x3e15f59c	0.14644474
155	0x3d458140	0.048218966
156	0x3e080dc8	0.13286507
157	0xbd3b66d8	-0.045752376
158	0x3c7111f8	0.014713757
159	0xbdd7cc8e	-0.105370626
160	0xbe66b757	-0.22530876
161	0x3e01b2ff	0.12665938
162	0x3ddf52ab	0.109044395
163	0xbe25433a	-0.16138926
164	0xbe0497d5	-0.12948544
165	0x3decea76	0.115681574
166	0x3c5a9402	0.013340952
167	0xbde3883d	-0.1110997
168	0xbdb7aa57	-0.089680366
169	0x3e024345	0.12720974
170	0xbe0d24a4	-0.13783509
171	0x3de65a6d	0.11247716
172	0x3dfa3818	0.1221773
173	0xbdd15ba4	-0.10222557
174	0x3b5adce0	0.0033395812
175	0xbe45cf76	-0.19317421
176	0xbe4e50b5	-0.20147975
177	0x3db296d7	0.08720177
178	0x3db0f7e7	0.086410336
179	0xbd619673	-0.05507512
180	0xbda8a47b	-0.08234497
181	0x3d9c257d	0.07624338
182	0x3e1b3b2f	0.15159295
183	0xbd388546	-0.045048974
184	0x3e37ac45	0.1793681
185	0x3cd124d9	0.025530266
186	0x3e135386	0.1438733
187	0x3c3c6377	0.011498324
188	0x3dd96620	0.10615182
189	0xbc1e3df5	-0.009658326
190	0xbc2c343f	-0.010510503
191	0xbdc2d432	-0.09513129
192	0xbc829ee4	-0.015944906
193	0x3d147c8f	0.0362516
194	0x3d3455fb	0.04402731
195	0x3d82501d	0.06362937
196	0x3d6da7ea	0.058021463
197	0xbd03f1bf	-0.03221297
198	0x3e2754a3	0.1634088
199	0x3e2dfa3a	0.16989985
200	0x3d420eee	0.04737752
201	0x3d725f8f	0.059173163
202	0xbdbf13b4	-0.0932993
203	0x3dce2325	0.10065297
204	0x3e1f462d	0.15554114
205	0x3dc5b361	0.096533544
206	0x3d575a36	0.052576266
207	0x3c4d1573	0.012517321
208	0xbcecde73	-0.028914666
209	0xbd65f713	-0.05614383
210	0x3cc64a15	0.024205247
211	0x3df0e3c1	0.117621906
212	0x3da9d5a1	0.082926996
213	0xbd379352	-0.04481823
214	0x3d12209c	0.03567563
215	0x3e02693f	0.1273546
216	0xbdaa55c2	-0.08317138
217	0xbd8bd69e	-0.06828044
218	0xbdab4159	-0.083620735
219	0xbe212546	-0.15736875
220	0x3de56df6	0.11202614
221	0xbcde78fb	-0.027157297
222	0xbd9d22ee	-0.07672678
223	0x3caf2328	0.021379068
224	0xbc715132	-0.014728831
225	0x3e1c0441	0.15235998
226	0x3e2bf5dd	0.16793008
227	0x3dc6d9eb	0.09709533
228	0xbd6b9664	-0.05751647
229	0x3c96769d	0.018367106
230	0xbda35900	-0.0797596
231	0xbdac4ff6	-0.08413689
232	0x3c24f3c0	0.01006788
233	0xbd835779	-0.064131685
234	0x3e1dfb9c	0.15428013
235	0x3e46c5c0	0.19411373
236	0x3e296b8f	0.16544937
237	0x3cd571d1	0.026055248
238	0x3d171f5c	0.03689514
239	0xbd0f98fb	-0.035058003
240	0x3e0e1c60	0.13878012
241	0x3bffbfd6	0.007804851
242	0x3e5549a5	0.20828874
243	0xbd81ebaf	-0.06343781
244	0x3acac4ea	0.0015470062
245	0xbe3f7d1d	-0.1870007
246	0x3da9d02f	0.08291661
247	0xbd386eaf	-0.04502743
248	0x3e24b4dc	0.16084617
249	0xbe27d9e3	-0.16391711
250	0xbdd94601	-0.10609055
251	0xbd386eaf	-0.04502743
252	0x3e158240	0.14600468
253	0xbd69a750	-0.057044327
254	0xbd0f3911	-0.034966532
255	0x3d882b81	0.06648923

layer1.0.bias f4 [16]
0	0xbcc99ea8	-0.024611786
1	0x3e06ecfc	0.1317634
2	0xbd24928d	-0.040178824
3	0xbd2409ee	-0.040048532
4	0x3e0558fb	0.13022225
5	0xbc88931d	-0.016671712
6	0x3c8d0dcd	0.017218495
7	0x3ddef467	0.1088646
8	0x3e297623	0.16548972
9	0xbe1f676d	-0.15566798
10	0xbd9981d2	-0.074954644
11	0x3e1a166b	0.15047614
12	0x3e0542ec	0.1301381
13	0xbdcbe477	-0.099556856
14	0xbe33a13d	-0.17541976
15	0xbdfac887	-0.12245279

layer1.1.weight f4 [16]
0	0x3f82134c	1.0162139
1	0x3f802e7f	1.001419
2	0x3f82e601	1.0226442
3	0x3f8007d7	1.0002393
4	0x3f7cbd67	0.98726505
5	0x3f81d319	1.0142547
6	0x3f7da5d4	0.9908116
7	0x3f8053fc	1.002563
8	0x3f7d9973	0.9906227
9	0x3f806944	1.0032125
10	0x3f765ee4	0.9623854
11	0x3f7cdef4	0.987777
12	0x3f809302	1.0044863
13	0x3f7a8f17	0.9787459
14	0x3f809998	1.0046873
15	0x3f7bb0f0	0.9831686

layer1.1.bias f4 [16]
0	0xbb8ee5b5	-0.0043608793
1	0x3cce01a0	0.02514726
2	0x3d657480	0.056019306
3	0xbbbfd4e4	-0.005854236
4	0xbc60a3ee	-0.013710959
5	0x3ce8e2c5	0.028428445
6	0x3b1bbd8b	0.00237641
7	0xbb12ea07	-0.0022417323
8	0xbca6a0bb	-0.020340314
9	0x3d1d001c	0.038330182
10	0xbcc284e0	-0.023745
11	0x3c1c8f54	0.009555656
12	0x3a9859a2	0.0011623392
13	0xbcdc4037	-0.026886089
14	0xbc76bd20	-0.015059739
15	0xbcf30415	-0.029665032

layer1.1.running_mean f4 [16]
0	0xbf02949b	-0.51008004
1	0x3de20ef4	0.11038008
2	0xbd869f3a	-0.06573339
3	0x3eb37832	0.3505264
4	0x3f6be680	0.9214859
5	0xbd4644ec	-0.048405573
6	0x3d520e9c	0.051283464
7	0x3f1c81ee	0.61135757
8	0x3ecf8114	0.40528166
9	0xbe28c49d	-0.16481252
10	0x3eb85ddb	0.36009106
11	0x3f2e160f	0.6800241
12	0xbe85c6ba	-0.2612818
13	0x3e616bbc	0.22013754
14	0xbef96a15	-0.48713747
15	0xbf090fc3	-0.53539675

layer1.1.running_var f4 [16]
0	0x3d7c6cd8	0.06162724
1	0x3c247971	0.0100387195
2	0x3ba066bb	0.004895059
3	0x3d1ba3a4	0.037997857
4	0x3e21f536	0.15816197
5	0x3a81ad5e	0.0009893586
6	0x3c21d32d	0.009877008
7	0x3d8e0c92	0.06935991
8	0x3d2f6453	0.042820286
9	0x3ae64874	0.00175692
10	0x3d61ba02	0.05510903
11	0x3d8b732a	0.06809075
12	0x3d12b574	0.03581758
13	0x3cf81e78	0.030287966
14	0x3cec3ff3	0.028839087
15	0x3d4dcbca	0.050243177

layer2.0.weight f4 [32, 16, 3, 3]
0	0xbd75aac7	-0.05997732
1	0xbb1cfb13	-0.0023953363
2	0xbccf401e	-0.025299128
3	0xbd9447ff	-0.07240295
4	0x3c55468d	0.013017309
5	0x3d408f00	0.047011375
6	0xbd36e596	-0.044652544
7	0x3d4f794c	0.050652787
8	0xbc90cdef	-0.017676322
9	0x3d041a0c	0.032251403
10	0x3dca0387	0.09863954
11	0x3d5c2db6	0.05375453
12	0xbd3172be	-0.043322317
13	0x3d64b7dc	0.055839404
14	0x3d5ccbea	0.053905405
15	0x3d3d5145	0.046220083
16	0xbd062443	-0.032749426
17	0x3dca3f69	0.09875376
18	0xbced1447	-0.028940333
19	0x3c0353b4	0.008015562
20	0x3dbc3987	0.0919066
21	0x3bea55a4	0.0071513224
22	0x3d83e0eb	0.06439384
23	0xbd85abc2	-0.06526901
24	0x3c8a41c5	0.016877064
25	0xbdc600f8	-0.096681535
26	0x3d7b306e	0.061325483
27	0x3c191053	0.009342271
28	0xbd87d12e	-0.06631695
29	0x3d380516	0.044926725
30	0x3d4bc0d1	0.04974443
31	0x3ca19bb4	0.019727565
32	0x3d5a6848	0.053322107
33	0x3d7ab591	0.06120831
34	0x3b01fb17	0.00198335
35	0xbd5b94d9	-0.05360875
36	0x3d666584	0.056249157
37	0xba4e8154	-0.0007877548
38	0x3d385a37	0.04500791
39	0xbcb91854	-0.022594608
40	0x3bafc223	0.005363719
41	0xbbe57cb5	-0.0070033916
42	0x3cd2d3c7	0.025735749
43	0x3cb0421a	0.021515895
44	0xbd36c3a2	-0.044620164
45	0x3c9eac2b	0.019369205
46	0xbd8a0c16	-0.067405865
47	0xbc823664	-0.015895076
48	0xbd827407	-0.06369787
49	0xbcf692af	-0.030099241
50	0x3d338552	0.043828316
51	0x3d2ca982	0.042153843
52	0xbda375d3	-0.079814576
53	0x3d71efa4	0.05906643
54	0xbcf9bad0	-0.030484587
55	0x3d48fe9d	0.049070943
56	0x3d2864b2	0.041111656
57	0xb9a4ddb3	-0.00031445696
58	0x3d6db9f8	0.05803868
59	0x3d35c9a0	0.044381738
60	0xbd55097f	-0.05201101
61	0x3b1efc8d	0.0024259419
62	0x3be014df	0.0068384255
63	0x3d977303	0.073949836
64	0xbcde0be3	-0.027105277
65	0xbd993d4b	-0.07482394
66	0x3d84c807	0.06483465
67	0x3c3ac01b	0.011398341
68	0x3d8d182d	0.06889377
69	0x3d9abaf8	0.07555193
70	0x3d434268	0.04767075
71	0xbab68afe	-0.0013926921
72	0x3d0b5ea7	0.034025814
73	0xbd95bcf2	-0.07311429
74	0xbdadf16e	-0.08493315
75	0xbbc95bec	-0.006144991
76	0x3d17452f	0.036931213
77	0x3d7a3ef7	0.061095204
78	0xbd6433e7	-0.05571356
79	0xbd174574	-0.03693147
80	0x3db95609	0.09049613
81	0xbd4baed1	-0.049727265
82	0xbccc8623	-0.024966305
83	0x3c90c067	0.01766987
84	0x3dabb05a	0.08383246
85	0xbcf89391	-0.030343803
86	0xbc9d6231	-0.01921186
87	0x3d2eee7f	0.042707916
88	0xbbef0381	-0.007294119
89	0xbd2f4b7a	-0.04279659
90	0x3d0c3563	0.0342306
91	0xbcdda27f	-0.027055023
92	0x3bc583e1	0.006027684
93	0x3d344c23	0.044017922
94	0x3c1e924d	0.0096784355
95	0xbcf8aebe	-0.030356761
96	0xbd1b35de	-0.03789317
97	0xbd31bb0e	-0.04339128
98	0x3da40675	0.08009044
99	0x3da277fb	0.07933041
100	0xbbf3bbe7	-0.007438171
101	0x3ce77800	0.028255463
102	0x3c49c244	0.012314383
103	0xbc22eb4a	-0.009943793
104	0x3c4d53cc	0.012532186
105	0xbcf5d7f5	-0.030010203
106	0xbd638a05	-0.055551548
107	0xbcd059a7	-0.025433375
108	0x3d77471d	0.060370553
109	0x3d2d7976	0.042352162
110	0x3d974c7e	0.073876366
111	0x3c691b97	0.014227769
112	0x3c88a5ee	0.016680684
113	0xbd2d0338	-0.042239398
114	0x3d7d9f11	0.061919276
115	0xbdaf7202	-0.08566667
116	0x3d7cdea4	0.061735764
117	0x3cc74bd4	0.02432815
118	0x3d9f8fd6	0.077911064
119	0xbdb5b716	-0.088728115
120	0xbccb83e2	-0.02484316
121	0xbc30194a	-0.010748217
122	0xbcca711a	-0.024712134
123	0x3d8877d6	0.06663482
124	0x3da6f17b	0.081515275
125	0x3d2c9c44	0.042141214
126	0xbc5394e5	-0.012913917
127	0x3d1a469f	0.037665006
128	0x3da0743d	0.07834671
129	0xbc51ba5e	-0.012800781
130	0xbc644d5a	-0.013934458
131	0x3d35b0b5	0.044357974
132	0x3cc35973	0.023846364
133	0xbd97579e	-0.073897585
134	0xbc8a97c1	-0.016918065
135	0x3c18b81f	0.009321242
136	0x3cc0a551	0.023516329
137	0xbca583a4	-0.020204373
138	0xbda76204	-0.08172992
139	0xbd6e7c07	-0.05822375
140	0x3d39c2d8	0.045351833
141	0x3d2266f6	0.039648972
142	0xbd27b7d4	-0.040946797
143	0x3d1a1e74	0.0376267
144	0xbd5c4105	-0.053772945
145	0x3dabd424	0.08390072
146	0xbd52a0f5	-0.05142303
147	0x3c50b9ad	0.012739581
148	0xbd8e662f	-0.06953084
149	0x3d281e2d	0.041044403
150	0xbc0608cb	-0.008180807
151	0x3da33ad1	0.07970203
152	0x3d9fffc3	0.078124546
153	0x3ce4c5c8	0.02792634
154	0xbcc560ff	-0.024094103
155	0xbd9d7e66	-0.07690124
156	0xbc3f0974	-0.011659969
157	0xbd298e46	-0.04139545
158	0x3b819076	0.0039539887
159	0xbc224724	-0.009904657
160	0x3d33b0cf	0.04386979
161	0x3d55adbb	0.052167635
162	0x3b8fec11	0.004392155
163	0x3db77a25	0.08958844
164	0xbcba0861	-0.022709073
165	0xbd16b622	-0.03679479
166	0x3d7d73a2	0.061877854
167	0x3c65c4a1	0.014023931
168	0x3d8e58c5	0.06950525
169	0x3be8bce2	0.0071025947
170	0xbcffc0ce	-0.031219866
171	0x3cfde901	0.030994894
172	0xbce68b52	-0.028142605
173	0xbd23fb4c	-0.040034577
174	0x3c34e16a	0.011040071
175	0xbd2b3058	-0.04179415
176	0xbbcbc30f	-0.006218321
177	0x3d8f830a	0.070074156
178	0xbd79ca78	-0.060984105
179	0xbc1b37c6	-0.009473747
180	0x3c8868b9	0.016651498
181	0x3d94d4a3	0.0726712
182	0x3cbc6494	0.022997178
183	0x3d8b916b	0.06814846
184	0x3b9ba57f	0.0047499533
185	0x3d144e9b	0.036207777
186	0xbd9a6e70	-0.075405955
187	0x3cfbab5c	0.030721359
188	0xbcd04751	-0.025424631
189	0xbd777f78	-0.060424298
190	0x3d64ffea	0.05590812
191	0xbce5538d	-0.027993942
192	0xbd3e6440	-0.046482325
193	0x3c1335de	0.008985011
194	0xbda86ff6	-0.0822448
195	0xbd2b1868	-0.041771322
196	0xbd8726d4	-0.06599203
197	0xbd799eb5	-0.06094237
198	0xbd5bd996	-0.053674303
199	0xbce5b159	-0.028038668
200	0x3d1ec196	0.038758837
201	0xbd9ff092	-0.07809557
202	0x3cc72577	0.024309857
203	0xbd82a12f	-0.063783996
204	0xbd6fdadb	-0.058558326
205	0xbd275850	-0.040855706
206	0xbda8df4f	-0.08245718
207	0x3d8b9ad6	0.06816642
208	0xbd3a5070	-0.045486867
209	0x3da5dd6b	0.08098873
210	0xbd3b1a50	-0.04567939
211	0xbd607f95	-0.05480917
212	0xbd7c53cb	-0.06160335
213	0x3cf7eaa1	0.030263247
214	0xbd9c61ad	-0.07635818
215	0x3c87c5a9	0.016573744
216	0xbc793fc7	-0.01521296
217	0xbdb7aad3	-0.08968129
218	0xbcd602a2	-0.026124302
219	0xbbcd5af5	-0.0062669464
220	0xbbf29eb1	-0.0074041714
221	0xbb728b55	-0.0037009318
222	0x3d7269a3	0.059182774
223	0x3d865667	0.06559449
224	0xbcfeab65	-0.031087587
225	0xbd12e418	-0.03586206
226	0x3c5f82a9	0.013641992
227	0x3dad4c7b	0.08461853
228	0xbd4b104d	-0.049576093
229	0xbda12db4	-0.07870045
230	0xbc90eea1	-0.017691912
231	0xbd5e24b8	-0.054234236
232	0x3bc44dbd	0.0059907124
233	0xbd16b8d0	-0.036797345
234	0x3ce7a273	0.028275704
235	0xbc029829	-0.007970848
236	0x3b3a78f8	0.002845345
237	0x3d93733d	0.07199714
238	0x3d4cca66	0.04999771
239	0xbd6970b0	-0.056992233
240	0x3d6f72a7	0.05845895
241	0x3d4c9130	0.04994315
242	0xbd822598	-0.06354827
243	0x3ca90ac2	0.020635013
244	0xbca090fd	-0.019600386
245	0xbd4394d9	-0.047749374
246	0x3d404da5	0.046949048
247	0x3d80fab1	0.062978156
248	0x3c9b6cca	0.018972773
249	0x3d2b1683	0.041769516
250	0xbd22a3f8	-0.039707154
251	0x3cf2680b	0.029590627
252	0x3dab9b71	0.083792575
253	0x3cd1f191	0.025627883
254	0x3dc18918	0.09449977
255	0x3d880998	0.06642455

layer2.0.bias f4 [32]
0	0x3d079327	0.03309932
1	0xbd940101	-0.07226754
2	0x3cdf00eb	0.027222117
3	0xbd9c4fda	-0.07632418
4	0xbd1900cf	-0.037354287
5	0x3d6e9503	0.058247577
6	0xbcbca7af	-0.023029177
7	0xbc5d97d5	-0.013524969
8	0x3d2d90ba	0.04237435
9	0x3d39a7e6	0.045326136
10	0xbda00313	-0.07813086
11	0xbbc30056	-0.005950968
12	0x3cb4aea3	0.02205593
13	0x3da2c6ff	0.07948112
14	0xbd7e4e1b	-0.062086206
15	0xbdacb5a0	-0.0843308
16	0x3cee63c5	0.029100308
17	0x3d381d68	0.04494992
18	0xbd853731	-0.065046676
19	0x3d031a63	0.032007586
20	0xbd07b68b	-0.03313307
21	0xbcea1d47	-0.028578414
22	0xbcab6b6c	-0.020925246
23	0x3cacaec3	0.021079427
24	0x3d4c979b	0.04994927
25	0x3da95cf3	0.08269682
26	0xbd940935	-0.072283186
27	0xbdb65456	-0.089028046
28	0xbd6e9fe1	-0.05825794
29	0x3cc20062	0.023681823
30	0xbcbce0fe	-0.023056503
31	0x3d448367	0.047976878

layer2.1.weight f4 [32]
0	0x3f7ca872	0.9869453
1	0x3f8094bf	1.0045394
2	0x3f7aeed6	0.98020685
3	0x3f7bf733	0.9842407
4	0x3f7ccd2f	0.98750585
5	0x3f81d3fe	1.014282
6	0x3f7d165f	0.9886226
7	0x3f81717b	1.0112756
8	0x3f81a1ca	1.0127499
9	0x3f7e3538	0.99299955
10	0x3f7e4fd6	0.9934057
11	0x3f7bd317	0.9836897
12	0x3f7ca0ea	0.98683035
13	0x3f8161eb	1.0108007
14	0x3f7cba67	0.9872193
15	0x3f7ec9b0	0.995265
16	0x3f7fdac3	0.9994318
17	0x3f788ed4	0.9709294
18	0x3f8263f7	1.0186757
19	0x3f818285	1.0117956
20	0x3f84c610	1.0372944
21	0x3f814f60	1.0102348
22	0x3f7915c9	0.97298867
23	0x3f7a343b	0.9773595
24	0x3f7be0f4	0.98390126
25	0x3f81619e	1.0107915
26	0x3f801b9f	1.0008429
27	0x3f848c21	1.0355264
28	0x3f7c7112	0.9861003
29	0x3f7dbbde	0.9911479
30	0x3f7ce59c	0.98787856
31	0x3f8271d8	1.0190992

layer2.1.bias f4 [32]
0	0xbcaf6299	-0.02140932
1	0x3aebb90c	0.0017984225
2	0xbd04cb2c	-0.032420322
3	0xbc062668	-0.008187868
4	0xbc8d5e80	-0.017256975
5	0xbc2a448d	-0.01039232
6	0xb9a9417f	-0.0003228299
7	0xbc483b93	-0.012221235
8	0xbcccfb0b	-0.02502205
9	0xbc69a42d	-0.014260334
10	0xbbd61074	-0.006532723
11	0xbc39a656	-0.0113311615
12	0xbc823ce9	-0.015898185
13	0xbd00b188	-0.031419307
14	0xbc8121d6	-0.015763205
15	0xbc02d8d1	-0.007986263
16	0xbbbb911b	-0.005724085
17	0xbcb15f69	-0.02165194
18	0xbd00966e	-0.03139346
19	0xbc634964	-0.013872478
20	0xbd05bf7e	-0.032653324
21	0x3ade7394	0.0016971701
22	0x3c224e71	0.009906397
23	0xbc94341f	-0.01809126
24	0xbbe37365	-0.0069412463
25	0xbac3e6f9	-0.0014946155
26	0x3cd8e109	0.026474493
27	0xbb566ed8	-0.0032719877
28	0xbcb32ad2	-0.021871004
29	0xbc144ac7	-0.009051031
30	0xbcd6cd78	-0.026221022
31	0xbc33d069	-0.010974982

layer2.1.running_mean f4 [32]
0	0x3f0dfcc2	0.554638
1	0x3d0d5570	0.034505308
2	0xbf833efe	-1.0253599
3	0x3e6bd014	0.23028594
4	0xbf921552	-1.1412756
5	0xbea6155a	-0.32438165
6	0xbda37100	-0.079805374
7	0x3efad6b1	0.48991922
8	0xbe939d73	-0.28831062
9	0x3c1f3b07	0.009718663
10	0x3e8a46d6	0.2700717
11	0xbf021a9f	-0.5082187
12	0xbe15c752	-0.14626816
13	0x3e84a57b	0.25907502
14	0xbeed9a3d	-0.46406737
15	0xbee5ef2f	-0.44909045
16	0xbf1a0045	-0.6015666
17	0xbe8d031e	-0.2754144
18	0x3f00621b	0.501497
19	0xbf5e75bb	-0.8689839
20	0xbec15421	-0.37759498
21	0xbee63360	-0.4496107
22	0xbe3ad0a5	-0.18243654
23	0xbf545391	-0.8294001
24	0x3f1a73bb	0.6033284
25	0xbf12e6ad	-0.57383233
26	0xbe8215b4	-0.25407183
27	0xbeb71a7e	-0.357624
28	0xbf54f261	-0.8318234
29	0x3e05f644	0.13082224
30	0x3f006d60	0.50166893
31	0x3d3af0cf	0.04563981

layer2.1.running_var f4 [32]
0	0x3e9d01bd	0.3066539
1	0x3e3ab811	0.18234278
2	0x3e97e9a9	0.29670456
3	0x3f08d2ab	0.53446454
4	0x3ec7c8ae	0.39020294
5	0x3e644d68	0.22295153
6	0x3e39d934	0.18149263
7	0x3ea58a38	0.32332015
8	0x3e4461c8	0.19177926
9	0x3e3749ee	0.17899296
10	0x3e3b87e5	0.18313558
11	0x3e871a4c	0.2638725
12	0x3e795bff	0.243515
13	0x3e5b8abe	0.21439645
14	0x3e57954f	0.2105305
15	0x3df0f0a4	0.117646486
16	0x3e66e11a	0.22546807
17	0x3f11badb	0.56925744
18	0x3e712c1b	0.23551981
19	0x3e8d8e8e	0.27647823
20	0x3e1a45df	0.15065716
21	0x3df7b922	0.12095858
22	0x3e3b3d81	0.1828518
23	0x3f361dfa	0.7113949
24	0x3ee2778f	0.4423184
25	0x3eba1e57	0.36351272
26	0x3e06cdcd	0.13164444
27	0x3e2c5735	0.16830142
28	0x3ed9a19f	0.4250612
29	0x3e22c82a	0.15896669
30	0x3e958b5b	0.29207882
31	0x3ddad2a3	0.10684707

layer3.0.weight f4 [64, 32, 3, 3]
0	0xbd3b4b3d	-0.04572605
1	0xbba92bff	-0.0051627154
2	0xbcc656a0	-0.024211228
3	0xbd288c3a	-0.041149355
4	0x3d10bebd	0.035338152
5	0xbccac816	-0.024753612
6	0xbd1ac744	-0.03778769
7	0x3b8078f2	0.003920668
8	0xbce7d205	-0.028298387
9	0x3d076126	0.033051632
10	0x3c6f5d4b	0.014609645
11	0x3befc58c	0.0073172506
12	0x3d89f4a7	0.06736117
13	0xbcaf9088	-0.021431223
14	0x3d277e3f	0.040891882
15	0x3d0b3d8b	0.03399424
16	0xbd636d7f	-0.055524345
17	0xbc6ecd87	-0.014575369
18	0xbd34f434	-0.044178203
19	0x3d632431	0.055454437
20	0xbc04ae71	-0.008098231
21	0x3d18d353	0.03731091
22	0xbbd005d6	-0.006348352
23	0x3c015ef6	0.007896176
24	0xbd4c0668	-0.049810797
25	0x3d10c65d	0.035345424
26	0x3c930f41	0.01795161
27	0x3d3196ec	0.04335682
28	0xbd329467	-0.04359856
29	0x3c92f8e6	0.01794095
30	0xbce382a7	-0.02777226
31	0x3cca53d4	0.024698175
32	0xbcbef1ee	-0.02330872
33	0x3d164070	0.036682546
34	0xbd23521e	-0.039873235
35	0x3d3095d5	0.04311164
36	0xbb3f9393	-0.0029232248
37	0x3a10a32d	0.0005517479
38	0xbd0a8080	-0.033813953
39	0xbd64aefb	-0.055830937
40	0x3d25d4a9	0.04048601
41	0x3bd60e56	0.0065324707
42	0xbb866bb7	-0.004102196
43	0x3d10a636	0.03531476
44	0xbca0f1fd	-0.019646639
45	0x3d73167d	0.05934762
46	0xbd4c9d30	-0.049954593
47	0x3bf4cf61	0.0074710106
48	0x3d496a3a	0.04917357
49	0x3cea62e9	0.028611617
50	0x3b00ff74	0.0019683512
51	0x399986a5	0.00029282752
52	0x3d77568b	0.06038527
53	0xbb92e956	-0.004483382
54	0xbd2ef0d2	-0.042710133
55	0x3d7ff7fb	0.062492352
56	0xbd39b051	-0.045334164
57	0xbd380eee	-0.044936113
58	0x3bf3cbe7	0.0074400785
59	0x3cb2bfd5	0.021819988
60	0xbd0730e7	-0.03300562
61	0x3b85373b	0.004065422
62	0x3d3ed98c	0.046594188
63	0x3ca25918	0.019817874
64	0xbc96c541	-0.018404605
65	0xbc422689	-0.011850008
66	0x3c273373	0.010205138
67	0xbcbece14	-0.023291625
68	0x3d481bd1	0.048854653
69	0x3c85daa6	0.016339611
70	0xbd4d91da	-0.050187923
71	0x3cfe6fc4	0.031059153
72	0x3d81d97f	0.06340312
73	0x3bf826cd	0.007572985
74	0xbd3aeb21	-0.045634393
75	0xbb97635b	-0.0046199984
76	0xbd196fbc	-0.037460074
77	0xbd49e24e	-0.049288087
78	0xbcbc805d	-0.023010427
79	0xbd632f54	-0.055465057
80	0x3d0680d5	0.032837708
81	0x3c0071d3	0.007839638
82	0x3c0e3eb4	0.008681942
83	0x3d83a3d4	0.06427732
84	0xbd6842de	-0.056704395
85	0xbcb42fbc	-0.021995418
86	0x3d5b91fc	0.05360602
87	0x3c432300	0.0119102
88	0x3c971b4b	0.018445631
89	0x3cdc6af0	0.02690646
90	0xbad13f3f	-0.0015964283
91	0x3d2c4e76	0.042067014
92	0xbcd8c154	-0.026459374
93	0x3bb070d3	0.0053845434
94	0x3c94415d	0.018097574
95	0xbd044964	-0.032296553
96	0xbcab77d3	-0.02093116
97	0xbbff4a85	-0.007790866
98	0xbd2b89f3	-0.041879606
99	0x3d1c0539	0.03809092
100	0xbb9645de	-0.0045859655
101	0x3d35b8d5	0.044365723
102	0x3d5e612d	0.054291893
103	0x3d781908	0.060570747
104	0xbd2e8f42	-0.04261709
105	0xbcd9a2f9	-0.02656697
106	0x3c207a0d	0.009794724
107	0xbd11c83c	-0.03559135
108	0x3d130039	0.035888884
109	0x3d508383	0.05090667
110	0xbcdf8ee2	-0.027289812
111	0xbca0d4e1	-0.019632759
112	0xbcfe52f9	-0.031045424
113	0xbc9842c9	-0.018586533
114	0x3c9aff1d	0.018920476
115	0xbd4b42b1	-0.04962415
116	0x3d7ec829	0.062202606
117	0xbca17b83	-0.019712215
118	0x3d39752c	0.04527776
119	0xbd962fc4	-0.07333329
120	0x3d493f5b	0.049132686
121	0xbd1dc7e4	-0.03852071
122	0xbb89d877	-0.004206713
123	0xbd1a1d6c	-0.037625715
124	0x3ce075c6	0.027399909
125	0xbd547c11	-0.05187613
126	0x3d1fe25a	0.039034225
127	0x3cd77857	0.0263025
128	0xbcd51c7a	-0.026014555
129	0xbbee85fc	-0.007279156
130	0x3cc7ba74	0.0243809
131	0xbc6a9638	-0.0143180415
132	0x3d13f2fc	0.0361204
133	0x3d24a4cf	0.040196236
134	0x3d1e0759	0.038581226
135	0x3d81752e	0.063211784
136	0x3d57f7fa	0.052726723
137	0x3be13b77	0.006873544
138	0xbcfeda0f	-0.031109838
139	0xbd3940c6	-0.04522779
140	0xbccd02e5	-0.025025794
141	0x3c9dbf6c	0.019256316
142	0xbd267e86	-0.040648006
143	0xbd552e9a	-0.052046396
144	0x3b9f9da4	0.004871087
145	0xbced4b52	-0.02896658
146	0x3d50292a	0.050820507
147	0xbd871b38	-0.065969884
148	0x3bace543	0.0052763536
149	0xb9146bf3	-0.00014154594
150	0xbd512a87	-0.051065948
151	0xbd6aa88c	-0.057289645
152	0xbd0aebfc	-0.03391646
153	0xbc834086	-0.016021978
154	0xbc743f8f	-0.014907732
155	0xbc826f98	-0.015922353
156	0x3c17ca33	0.009264517
157	0x3d0cb0db	0.03434835
158	0xbcce51d9	-0.025185512
159	0xba2b9cbb	-0.0006546487
160	0xbc239acb	-0.009985636
161	0xbd594ae9	-0.053049956
162	0x3d67a0f7	0.056549992
163	0x3cb6dc63	0.022321885
164	0x3ce4dc69	0.027937131
165	0xbb8265ca	-0.0039794194
166	0xbcaba4c3	-0.020952588
167	0x3bc01f5a	0.0058631124
168	0x3ce98265	0.02850456
169	0x3d126e53	0.035749745
170	0xbd850f85	-0.06497101
171	0x3d41e9a3	0.047341954
172	0x3d884c26	0.06655149
173	0x3d53e7af	0.051734623
174	0x3c65c7e6	0.01402471
175	0x394a66b5	0.00019302483
176	0xbc17e7ec	-0.009271603
177	0x3d422c89	0.047405753
178	0x3d71ea71	0.05906147
179	0xbc11c020	-0.008895904
180	0x3be0e6a9	0.0068634343
181	0x3cac5f43	0.021041518
182	0xbb212ac9	-0.0024592152
183	0xbd11ebcd	-0.035625268
184	0x3c94dfc1	0.0181731
185	0xbd423ec3	-0.047423135
186	0xbd8e65a1	-0.06952978
187	0xbcac15ce	-0.021006491
188	0x3cc1204a	0.023574967
189	0x3c24fe9e	0.010070471
190	0xbc8f00d6	-0.017456453
191	0x3cfd8249	0.030945914
192	0xbd5ae395	-0.053439695
193	0xbd3478c2	-0.044060476
194	0x3c7a5d7b	0.015281077
195	0xbbccc970	-0.006249599
196	0xbd355821	-0.0442735
197	0x3cae4b92	0.02127627
198	0x3bac6f8a	0.00526232
199	0x3b09a8d3	0.0021005168
200	0xbd22944d	-0.039692212
201	0xbd81fe89	-0.06347377
202	0x3b93a10e	0.004505283
203	0x3d3dc01a	0.04632578
204	0x3d21f68e	0.039541773
205	0x3d42131d	0.04738151
206	0xbce51671	-0.027964802
207	0xbce32973	-0.027729725
208	0x3cd0b3b3	0.025476312
209	0x3d5c7c75	0.05382963
210	0xb9c779bc	-0.00038046937
211	0xbcd85d86	-0.026411783
212	0xbbf43fd9	-0.0074539003
213	0xbd118a57	-0.03553232
214	0x3d6b5ec1	0.05746341
215	0xbd4f46a9	-0.050604496
216	0x3d5bfffc	0.053710923
217	0xbd1f1fbd	-0.038848627
218	0x39618526	0.00021507274
219	0xbd54611c	-0.051850423
220	0xba7ebb53	-0.00097172445
221	0xbd627167	-0.05528393
222	0x3beff42a	0.007322808
223	0x38944610	7.07024e-05
224	0x3cfe8085	0.031067142
225	0xbbcfe2b5	-0.0063441643
226	0xbc3305b8	-0.010926656
227	0xbd164928	-0.03669086
228	0x3d503aac	0.050837204
229	0x3d26d762	0.04073275
230	0x3cbdb1af	0.023156015
231	0x3c8cf52c	0.01720675
232	0xbd02e4f4	-0.031956628
233	0xbc83683c	-0.016040914
234	0x3d89a391	0.06720651
235	0xbd7ea81b	-0.062172037
236	0x3c234d38	0.009967141
237	0xbc7490be	-0.014927087
238	0xbd0210f1	-0.031754438
239	0xbd71ab62	-0.059001334
240	0xbd965ba0	-0.07341695
241	0x3d07f0c3	0.033188593
242	0xbd6d953e	-0.058003657
243	0x3d65a57c	0.05606602
244	0x3d54d798	0.05196342
245	0x3ce8a7c6	0.028400313
246	0x3d3ef479	0.046619866
247	0xbd6431a9	-0.055711422
248	0xbbceaf8f	-0.0063075493
249	0xbca0042e	-0.019533243
250	0xbc3fbced	-0.011702758
251	0xbd7857b8	-0.06063053
252	0x3d036df7	0.032087293
253	0xbc54b8ef	-0.012983545
254	0x3d29ce45	0.04145648
255	0xbd05b885	-0.032646675

layer3.0.bias f4 [64]
0	0xbd5282b0	-0.051394165
1	0xbc8793fd	-0.016550058
2	0xbc167927	-0.009184158
3	0xbbd42977	-0.0064746696
4	0x3d76a4fa	0.060215928
5	0x3c9635f4	0.018336274
6	0xba3e4423	-0.0007258078
7	0xbb537abb	-0.0032269198
8	0xbd8bd1ff	-0.06827163
9	0x3cadec96	0.021230977
10	0x3b9fc310	0.004875548
11	0x3d17df52	0.03707821
12	0x3cff1e24	0.031142302
13	0x3c8ba111	0.017044576
14	0xbd7464ff	-0.05966663
15	0x3d30ddf6	0.04318043
16	0xbca91784	-0.020641096
17	0xbd145010	-0.036209166
18	0xbd62f7dd	-0.055412162
19	0x3d3434f2	0.043995805
20	0xbc59628f	-0.013268127
21	0xbcdf1328	-0.027230814
22	0xbd25b059	-0.04045138
23	0x3cfa2312	0.030534301
24	0x3c4e185e	0.012579052
25	0xbccc8bf4	-0.024969079
26	0x3c524167	0.012832976
27	0x3bed3e1d	0.0072400705
28	0xbd6035db	-0.05473886
29	0x3d2878a6	0.041130684
30	0x3c47514f	0.012165382
31	0x3c15c9d2	0.009142356
32	0xbc87e675	-0.016589383
33	0x3aa4127a	0.0012517713
34	0x3d2793e9	0.040912542
35	0xbd28b9c1	-0.041192774
36	0xbd51649d	-0.051121343
37	0xbbe4b3d0	-0.006979443
38	0xbd76bdff	-0.06023979
39	0xbc278a39	-0.010225826
40	0xbd0f7365	-0.03502216
41	0x3d14f379	0.036365006
42	0x3ce5228c	0.027970575
43	0xbd000e57	-0.031263676
44	0xbd1fe1dc	-0.039033756
45	0x3c7992f6	0.015232792
46	0x3d3dc555	0.04633077
47	0x3cac6853	0.02104584
48	0xbd104518	-0.035222143
49	0xbcc1aafe	-0.023641106
50	0x3d33c80c	0.04389195
51	0xbd49e136	-0.049287044
52	0xbd3bfb2a	-0.045893826
53	0xbcf07038	-0.029350385
54	0xbc3255ba	-0.010884697
55	0x3cd2b7cc	0.025722407
56	0xbb0faab1	-0.0021921808
57	0xbc9741df	-0.018464027
58	0x3d01a784	0.031653896
59	0xbcf51a25	-0.029919693
60	0x3d0f4e78	0.034986943
61	0x3d2b16e4	0.041769877
62	0xbcf86833	-0.030323124
63	0xbd1b3376	-0.037890874

layer3.1.weight f4 [64]
0	0x3f7c4b61	0.9855252
1	0x3f837c9d	1.0272404
2	0x3f7fc47c	0.99909186
3	0x3f7df908	0.99208117
4	0x3f826857	1.0188092
5	0x3f7fff1b	0.99998635
6	0x3f7c8823	0.9864523
7	0x3f7d2ffd	0.9890135
8	0x3f7fe3a4	0.9995673
9	0x3f80d889	1.0066081
10	0x3f781f35	0.9692262
11	0x3f81156f	1.0084666
12	0x3f804991	1.0022451
13	0x3f8061b2	1.0029814
14	0x3f7f7d25	0.9980033
15	0x3f834324	1.0254865
16	0x3f7d0bbf	0.9884605
17	0x3f7a1319	0.9768539
18	0x3f7ecede	0.99534404
19	0x3f7fd28d	0.9993065
20	0x3f8114b2	1.0084441
21	0x3f813861	1.009533
22	0x3f807500	1.0035706
23	0x3f787ede	0.97068584
24	0x3f7cc7da	0.9874245
25	0x3f7fe241	0.9995461
26	0x3f7de552	0.9917804
27	0x3f7d34dc	0.9890878
28	0x3f7f6259	0.9975944
29	0x3f7ca25f	0.9868526
30	0x3f809c92	1.0047781
31	0x3f80f72f	1.0075434
32	0x3f84e890	1.0383472
33	0x3f7f31a6	0.9968513
34	0x3f81eb94	1.0150018
35	0x3f7fb4db	0.9988534
36	0x3f7e7e14	0.9941113
37	0x3f809a07	1.0047005
38	0x3f8174da	1.0113785
39	0x3f8086f0	1.004118
40	0x3f82a1f1	1.020567
41	0x3f7dc032	0.9912139
42	0x3f81aead	1.0131432
43	0x3f84a34b	1.0362333
44	0x3f827216	1.0191066
45	0x3f81008b	1.0078291
46	0x3f808d0e	1.0043046
47	0x3f7e3719	0.9930282
48	0x3f7d3f94	0.9892514
49	0x3f80b7b9	1.0056068
50	0x3f82c194	1.0215325
51	0x3f829a5b	1.0203356
52	0x3f7cdbaf	0.9877271
53	0x3f825d88	1.0184793
54	0x3f824549	1.0177394
55	0x3f7dc9bc	0.9913595
56	0x3f81ad37	1.0130986
57	0x3f7d21ac	0.98879504
58	0x3f7ec1b5	0.99514323
59	0x3f824e42	1.0180132
60	0x3f80ad62	1.0052912
61	0x3f7f93e3	0.9983503
62	0x3f7a7df5	0.97848445
63	0x3f85c416	1.0450466

layer3.1.bias f4 [64]
0	0xbc92a0d6	-0.017898958
1	0xbb8755ea	-0.004130115
2	0xbc82e703	-0.015979296
3	0xbb82f44e	-0.0039964085
4	0x3b9e4990	0.0048305467
5	0xba3dd691	-0.0007241751
6	0xbc4f6523	-0.01265839
7	0xbc81bd0d	-0.015837217
8	0xbc802318	-0.015641734
9	0xbbcfc99c	-0.0063411724
10	0xbd155bea	-0.03646461
11	0xbc93dcd6	-0.018049639
12	0x3bc51f22	0.006015674
13	0xbc3ab753	-0.011396247
14	0xbb5b2dca	-0.003344404
15	0xbc4d8cd8	-0.012545787
16	0xbc9202ab	-0.017823538
17	0xbcb6bf45	-0.022308001
18	0xbc1ef2ee	-0.009701474
19	0xbc9d04f6	-0.019167405
20	0x3ba83a1e	0.0051338812
21	0xbb0b915f	-0.0021296365
22	0x3ade8c73	0.0016979113
23	0xbd342b33	-0.04398651
24	0xbc028b50	-0.007967785
25	0xbb884f7e	-0.004159867
26	0xbced9893	-0.029003417
27	0xbc2f55cf	-0.010701611
28	0xbb497da1	-0.0030745047
29	0xbc620d61	-0.013797135
30	0xbbbcc7c3	-0.005761118
31	0x3bbd028f	0.0057681273
32	0x3bc1941e	0.0059075495
33	0xbc36e215	-0.011162301
34	0x3a8e4ec5	0.0010857215
35	0xbc980750	-0.018558174
36	0xbc116743	-0.008874717
37	0x3c6fd48d	0.014638078
38	0xbbea5094	-0.007150719
39	0x3bd0980a	0.0063657807
40	0xbbab5b66	-0.0052294014
41	0xbcfbdfd6	-0.030746382
42	0x3b799ced	0.003808792
43	0x3c899277	0.016793473
44	0xbc87f2c4	-0.016595252
45	0xbb26e145	-0.002546386
46	0xbb666aa5	-0.003515878
47	0xbca204b4	-0.019777633
48	0xbc501848	-0.012701102
49	0x3b8ea7db	0.004353506
50	0x3c4bd385	0.012440567
51	0xbbd6148d	-0.0065332116
52	0xbc2d8854	-0.010591585
53	0x3c000a80	0.007815003
54	0xbc0b00c0	-0.0084840655
55	0xbc16a2a3	-0.009194049
56	0xbc4e5995	-0.0125946
57	0xbc7b76aa	-0.015348116
58	0xbc0fabdd	-0.008769003
59	0x3abe6340	0.0014525428
60	0x3b16f84b	0.0023036178
61	0xbbb7453f	-0.0055929716
62	0xbc807896	-0.0156825
63	0x3ca9c61b	0.020724347

layer3.1.running_mean f4 [64]
0	0xbd0de1e4	-0.034639254
1	0x3f3cefa8	0.73803186
2	0x3fd389da	1.6526444
3	0xbee23357	-0.44179794
4	0xbefc125d	-0.4923276
5	0x3f960b64	1.1722226
6	0xbe07ccdb	-0.1326174
7	0xbe775499	-0.24153365
8	0x3f358877	0.70911354
9	0xbddbeb2b	-0.10738214
10	0xbec8a7c6	-0.391905
11	0x3f2128ab	0.6295268
12	0xbf30a6d3	-0.69004554
13	0xbe765f72	-0.24059847
14	0x3e04a093	0.12951879
15	0x3fe1248b	1.7589277
16	0x3eff4220	0.49855137
17	0xbe213ea1	-0.15746547
18	0x3f5ccc8e	0.86249626
19	0x3f719fdc	0.9438455
20	0xbf39577c	-0.72399116
21	0xbf70967b	-0.93979615
22	0xbe92086e	-0.28522056
23	0x3f9aadb3	1.2084259
24	0xbf342521	-0.70369154
25	0xbf18b9b6	-0.5965837
26	0x3f0e14ef	0.5550069
27	0x3ea8190a	0.32831603
28	0x3ed460f7	0.41480228
29	0x3e371e73	0.17882709
30	0x3ea9a68b	0.33134875
31	0xbe9c1a04	-0.30488598
32	0xbdd71b77	-0.105032854
33	0xbf123e13	-0.5712597
34	0xbf8a4016	-1.0800807
35	0x3fa620e9	1.2978793
36	0xbec3ddfe	-0.38255304
37	0xbf543630	-0.82895184
38	0xbf1eacfd	-0.6198271
39	0xbf54f811	-0.8319102
40	0xbeccab95	-0.39974657
41	0x3fa3f7be	1.280998
42	0x3f068cb7	0.52558464
43	0x3f42fcde	0.76167095
44	0x3f60da4d	0.878331
45	0xbf704388	-0.93853045
46	0xbef22af7	-0.47298405
47	0x3fcbf462	1.5933955
48	0x3f295a85	0.66153747
49	0xbec38b42	-0.38192183
50	0x3f28c70f	0.6592874
51	0xbf123f63	-0.5712797
52	0x3d4ae616	0.049535833
53	0xbf2a943c	-0.6663244
54	0x3ff25c7c	1.8934474
55	0xbe587c40	-0.21141148
56	0x3f5221ba	0.8208271
57	0x3f015f96	0.5053648
58	0x3eaa1601	0.33219913
59	0x3f34b8e4	0.7059462
60	0x3f5f0d06	0.8712925
61	0x3da0ad38	0.07845539
62	0xbf74a366	-0.95561826
63	0x3f3a82db	0.7285592

layer3.1.running_var f4 [64]
0	0x3e5289c1	0.20560361
1	0x3e8a8f21	0.27062324
2	0x3e8d0e79	0.27550104
3	0x3e836128	0.25660062
4	0x3ebdd286	0.3707468
5	0x3e86dbe7	0.26339647
6	0x3e900c1e	0.28134245
7	0x3e96878c	0.2940029
8	0x3e93ba3f	0.28853032
9	0x3f05143d	0.51984006
10	0x3effdf27	0.4997494
11	0x3e440e90	0.1914618
12	0x3ebf1ecc	0.37328184
13	0x3f1077cb	0.5643279
14	0x3ef10ec5	0.4708158
15	0x3e973ad4	0.2953707
16	0x3f1f5a64	0.622473
17	0x3f3b74ef	0.732253
18	0x3e7b0924	0.24515206
19	0x3e592fc7	0.21209632
20	0x3ed4b990	0.41547823
21	0x3e87e3c3	0.26540956
22	0x3f022d31	0.50850207
23	0x3ebd2d29	0.36948517
24	0x3efe5727	0.49675867
25	0x3ea41843	0.3204976
26	0x3e38221f	0.17981766
27	0x3ec2e03b	0.380617
28	0x3ea6aca0	0.32553577
29	0x3f1931df	0.5984172
30	0x3e8f33ca	0.279692
31	0x3f014077	0.5048899
32	0x3ecfed7a	0.40610868
33	0x3e583659	0.21114482
34	0x3eac0edc	0.33605087
35	0x3ea80af8	0.32820868
36	0x3eaa0d18	0.33213115
37	0x3ef8a72c	0.48565042
38	0x3e264c6c	0.1624009
39	0x3ee99e7d	0.4562873
40	0x3f19d174	0.60085225
41	0x3e6fc561	0.23415138
42	0x3ed2dbdd	0.41183367
43	0x3e54ac51	0.20768858
44	0x3e9414a0	0.28921986
45	0x3f0bbdea	0.5458666
46	0x3f54c160	0.83107567
47	0x3e804ac4	0.25057042
48	0x3e72d8b1	0.23715474
49	0x3ef02d5d	0.4690961
50	0x3ee79ab6	0.45235223
51	0x3eb35e34	0.3503281
52	0x3f22f89f	0.63660616
53	0x3ef836b8	0.48479247
54	0x3ea85ce1	0.3288336
55	0x3e6a67fe	0.22891232
56	0x3e53e859	0.20694102
57	0x3f0af101	0.5427399
58	0x3f02f0e0	0.51148796
59	0x3e9088c6	0.2822935
60	0x3e7f3924	0.24924141
61	0x3ea5d9a9	0.32392624
62	0x3f15aa72	0.58463204
63	0x3eaf7bb8	0.34274077

fc1.weight f4 [10, 576]
0	0xba5a7776	-0.0008333841
1	0xbc62adb1	-0.013835357
2	0xbd005233	-0.03132839
3	0xbc8ae678	-0.0169556
4	0xbbb57008	-0.005537037
5	0x3c59db39	0.013296896
6	0x3d2ec190	0.042665064
7	0x3cb12709	0.021625059
8	0xbd171f6e	-0.036895208
9	0xbbf8f0e0	-0.007597074
10	0x3b1ed2bc	0.0024234494
11	0x3d3070eb	0.043076437
12	0xbd26ea2c	-0.040750667
13	0xbd708426	-0.058719777
14	0xbcb9d6f2	-0.022685502
15	0xbd7ffcc8	-0.06249693
16	0xbd15a93c	-0.036538348
17	0xbd242e24	-0.040083066
18	0xbca2a072	-0.019851897
19	0x3c0b8c00	0.008517265
20	0x3ba9a969	0.005177666
21	0x3d26e224	0.04074301
22	0x3ceed6c2	0.029155139
23	0x3d330d11	0.043713633
24	0x3ba49d76	0.0050236536
25	0xbb9fb95a	-0.0048743905
26	0x3d207ef4	0.039183572
27	0xbcc16a6f	-0.023610322
28	0xbd044c54	-0.032299355
29	0x3cf8af56	0.030357044
30	0x3ad10c61	0.0015949124
31	0xbd93d6ad	-0.072186805
32	0x3c889385	0.016671905
33	0xbcd16a14	-0.025563277
34	0xbbf290cd	-0.0074025155
35	0x3cd30d10	0.025763065
36	0x3c2080ad	0.009796304
37	0x3d32ee06	0.043684028
38	0xba92bf31	-0.0011195895
39	0x3c9c4c2e	0.019079294
40	0x3c7be622	0.015374692
41	0xbc63f379	-0.013913029
42	0x3cc27a0e	0.02373984
43	0x3d265d23	0.040616166
44	0x3cf87706	0.030330192
45	0xbc621d99	-0.013801002
46	0xbd1a74bb	-0.03770898
47	0xbd4a5efd	-0.049406994
48	0xbd2f5828	-0.04280868
49	0xbcc09049	-0.0235063
50	0x3c3d20d4	0.011543471
51	0xbcb3f516	-0.021967452
52	0xbbbf51ba	-0.0058386
53	0x3bc81573	0.0061060726
54	0x3ccc7e79	0.02496265
55	0x3c63a4bb	0.013894255
56	0xbce5c48d	-0.028047824
57	0x3d0e8535	0.034795005
58	0xbcb7974f	-0.022411017
59	0x3d2305f0	0.039800584
60	0x3d19947e	0.03749513
61	0xbce9bc5d	-0.028532201
62	0x3c3ee691	0.011651651
63	0x3c548055	0.01297005
64	0x3d22ab86	0.03971436
65	0x3d314150	0.043275177
66	0x3c6e7537	0.014554313
67	0x3b8559f6	0.004069562
68	0x3d1cb893	0.03826196
69	0x3cfa524a	0.030556817
70	0xbba462d5	-0.0050166645
71	0x3d1b842f	0.037967857
72	0xbcd6aa37	-0.026204212
73	0x3b69e454	0.0035689073
74	0xbc284b52	-0.010271864
75	0x3d284877	0.041084733
76	0xbca94fd9	-0.020667957
77	0x3c557720	0.01302889
78	0x3ba55f29	0.0050467444
79	0xbd16faed	-0.036860395
80	0x3c7c5cd2	0.015402989
81	0x3c25b81c	0.010114696
82	0xbcc74dbe	-0.024329063
83	0xbd38ef84	-0.045150295
84	0xbbffd251	-0.007807054
85	0x3be5cd7e	0.007013022
86	0x3c394156	0.011307081
87	0xbd35a358	-0.04434523
88	0xbd60be7f	-0.05486917
89	0xbd0772d5	-0.033068497
90	0x3cbbd82d	0.02293023
91	0xbc342b02	-0.010996582
92	0x3c6c9a07	0.01444102
93	0x3d144e46	0.03620746
94	0x3d5e72ff	0.054308888
95	0xbcb39047	-0.021919383
96	0x3cf5a8e5	0.029987762
97	0x3ce4db6e	0.027936663
98	0x3c46e8ed	0.012140495
99	0xbb468a26	-0.0030294745
100	0x3c8c6c97	0.017141623
101	0xbc9d53fe	-0.01920509
102	0x3c2efc30	0.010680243
103	0xbc291641	-0.010320247
104	0x3cfae3a6	0.03062613
105	0xbcd0ea37	-0.025502307
106	0x3caafd9f	0.02087289
107	0xbb860cd0	-0.004090883
108	0x3ca2242d	0.01979264
109	0x3cf74ce2	0.030188028
110	0xbc3fcc43	-0.011706415
111	0x3d5fbc4a	0.054622926
112	0xbc296b51	-0.010340528
113	0x3d492c1b	0.049114328
114	0xbb4be30a	-0.0031110668
115	0x3d2a5968	0.04158917
116	0x3c9ff278	0.019524798
117	0xbd381d88	-0.04495004
118	0xbd88e824	-0.06684902
119	0xbb29f32a	-0.002593229
120	0xbc41e37c	-0.011834022
121	0xbd3f725f	-0.046739932
122	0xba748e91	-0.00093291054
123	0xbd6e3dd5	-0.058164436
124	0xbba7bc30	-0.0051188692
125	0xbd4f49f8	-0.05060765
126	0xbca83767	-0.02053423
127	0xbd636ed0	-0.0555256
128	0xbc8dfa7f	-0.01733136
129	0xbd046b4b	-0.032328885
130	0xbd47c514	-0.048771933
131	0xbc2cf3cb	-0.010556172
132	0xbd34280f	-0.043983515
133	0xbd84bc54	-0.06481233
134	0xbd403a18	-0.046930403
135	0x3d00d696	0.031454645
136	0xbd0d2ad7	-0.034464683
137	0xbd69e085	-0.057098884
138	0xbd4ef1c5	-0.05052354
139	0xbba811c6	-0.005129072
140	0xbca3a97f	-0.019978283
141	0x3cd44e06	0.02591611
142	0x3c71e8be	0.014764963
143	0xbc473bf6	-0.012160292
144	0xba857052	-0.0010180569
145	0x3c667e47	0.014068193
146	0x3c83c486	0.01608492
147	0xbc9ff7fe	-0.019527432
148	0xbc79fe4c	-0.015258383
149	0x3abbece9	0.0014337573
150	0xbc91e1fb	-0.017807951
151	0xbbeb3836	-0.0071783317
152	0x3d5f1108	0.0544596
153	0x3d6336e2	0.055472262
154	0x3d4f2438	0.05057165
155	0xb8a922b0	-8.065009e-05
156	0x3d37017b	0.044679146
157	0xbca13f15	-0.0196834
158	0x3cf61ddb	0.030043533
159	0x3d6ad6b0	0.05733365
160	0xbb5da4f6	-0.0033820248
161	0xbccccedb	-0.02500098
162	0x3ca8d35e	0.0206086
163	0xba42170b	-0.00074039464
164	0x3d2be5de	0.041967265
165	0xbd269489	-0.040668998
166	0x3c9cda2a	0.019146997
167	0x3be285c4	0.0069129188
168	0xbc899dd8	-0.016798899
169	0xbd0042eb	-0.031313818
170	0x3c929dcc	0.017897509
171	0x3cafc35e	0.021455463
172	0xbc9a312b	-0.018822273
173	0x3d60e7d7	0.0549086
174	0xbd1ab598	-0.037770838
175	0xbb39df19	-0.0028361736
176	0xbd36e488	-0.044651538
177	0xbd31af0f	-0.04337984
178	0xbb41cc93	-0.0029571399
179	0x3cd51852	0.026012573
180	0xbd0c9f59	-0.034331653
181	0x3d02daa7	0.031946804
182	0x3a2f1103	0.0006678255
183	0x3c3faad5	0.011698444
184	0xbd09b673	-0.033621263
185	0x3d22e77e	0.03977155
186	0x3c795139	0.015217119
187	0xbd3618ea	-0.044457354
188	0x3c423abe	0.011854826
189	0x3b228ab0	0.0024801902
190	0x3ccda087	0.02510096
191	0x3d29639d	0.041354764
192	0x3b7b1ad6	0.0038315556
193	0x3d01e7e2	0.03171528
194	0x3d45577a	0.048179127
195	0xbb325c68	-0.0027215723
196	0x3d3f6054	0.046722725
197	0xbccc4a3e	-0.024937745
198	0x3d790620	0.060796857
199	0x3b5aafc0	0.0033368915
200	0x3d5cf21b	0.053941827
201	0x3d29dae4	0.041468516
202	0x3c824474	0.015901782
203	0xbc5984c0	-0.013276279
204	0x3d54863d	0.051885832
205	0x3c4ca7b4	0.012491155
206	0x3d1da246	0.038484834
207	0xbca0eaa2	-0.019643132
208	0xbc9e51b5	-0.01932607
209	0xbc09607b	-0.008384819
210	0x3b155241	0.0022784623
211	0xbc8a5f08	-0.016891018
212	0xbc3ff163	-0.011715266
213	0xbb7ad50d	-0.003827396
214	0xbcd7d158	-0.02634494
215	0x3c3bb8c1	0.011457623
216	0xbc112af5	-0.008860339
217	0xbc7e21c5	-0.015510981
218	0xbcdeb43f	-0.027185557
219	0xbca3e6aa	-0.02000745
220	0x3bf78afe	0.007554411
221	0x3cb34805	0.021884928
222	0xbc862a54	-0.016377605
223	0xbcb5697b	-0.022145024
224	0xbcf8c9a8	-0.030369595
225	0xbc8d3a1b	-0.01723962
226	0x3cc50e7d	0.02405476
227	0xbc81f916	-0.015865844
228	0x3c951cac	0.018202148
229	0xbba2129d	-0.0049460665
230	0x3ca577fb	0.020198813
231	0x3b51866b	0.0031970988
232	0xbad1b5de	-0.0015999635
233	0xbd0fdbd0	-0.03512174
234	0xbd1af5e6	-0.037832163
235	0xbc97fded	-0.018553698
236	0x3cd196ed	0.025584662
237	0xbd361def	-0.04446214
238	0xbc4aeeeb	-0.012386064
239	0xbc83f502	-0.01610804
240	0xbcec7bf1	-0.028867694
241	0x3c387847	0.011259145
242	0x3a0f1cee	0.0005459328
243	0xbd35de48	-0.044401437
244	0x3ceab7aa	0.028652031
245	0xbbf3e4c2	-0.0074430415
246	0x3c88a842	0.016681794
247	0x3d00a47d	0.03140687
248	0xbbb0af00	-0.0053919554
249	0xbcf2bad0	-0.029630095
250	0x3ac8eb78	0.0015328964
251	0xbd711697	-0.058859434
252	0xbd277552	-0.04088337
253	0x3c5ed3b9	0.013600283
254	0x3cb252e2	0.021768037
255	0xbd140874	-0.036140874

fc1.bias f4 [10]
0	0x3cde5471	0.027139874
1	0xbcf47a19	-0.029843377
2	0xbc197401	-0.009366036
3	0xbd071b37	-0.03298494
4	0xbca9a45f	-0.020708261
5	0x3ac4dc0f	0.0015019196
6	0x3d2eabc5	0.04264428
7	0xbd15c613	-0.03656585
8	0xbc9ca742	-0.019122723
9	0x3c2d5cf6	0.010581246

fc2.weight f4 [2, 10]
0	0x3e22dc10	0.1590426
1	0x3e3c0822	0.18362477
2	0x3deb867a	0.11500259
3	0xbe18d4bf	-0.14924906
4	0xbe889398	-0.26675105
5	0xbc0429ec	-0.008066636
6	0x3d714716	0.058905683
7	0xbe7bcfe0	-0.24591017
8	0xbe9960c7	-0.29956648
9	0x3e98e0bb	0.29858956
10	0x3d66e00d	0.056366015
11	0x3e6ae53a	0.22939005
12	0x3e3c6a7d	0.18399997
13	0x3e053217	0.13007389
14	0x3e8e89a0	0.27839375
15	0x3e86559d	0.26237193
16	0xbdb77798	-0.089583576
17	0x3e5e11a4	0.21686417
18	0x3e31c240	0.17359257
19	0xbe9002eb	-0.28127226

fc2.bias f4 [2]
0	0x3cac295d	0.021015817
1	0xbe9eb509	-0.30997494
