weight.pt (torch, 125998 bytes, 22 tensors)

layer1.0.weight f4 [16, 3, 3, 3]
00000000: 7c24 1e3e 6382 4f3d e473 f73d 8fe9 253e
00000010: c8a7 95bd 3a6c 9d3d 1aa0 20bc b167 fb3d
00000020: 7ba4 4ebd a9b9 11bd 1da4 dfbd 5a69 5fbe
00000030: bea0 78be fc1c 06be 937e d43b af12 03bc
00000040: 00f6 19be c4f4 0bbe 015d a8bd e9b2 c5be
00000050: f193 3fbe 5563 94be 2461 25be 77c4 adbe
00000060: 604d 3ebe 7dc6 1bbe 2641 73bd 0371 9ebd
00000070: ee73 f03d 40d0 75be 3930 57bd 0407 67be
00000080: ce16 3cbd 786d 513d c152 babd 59f4 333d
00000090: 4141 853d 6a8b a4bd 9105 5d3e 7bdc 7b3e
000000a0: 40d7 583e d5ed 713e 5334 513e 8e76 6e3e
000000b0: 3aac 873e b6f8 6abd c3ef 4ebe da7f 32be
000000c0: 6750 aabc 594b 6dbd 6df8 a4bd 372e f13d
000000d0: 1c2d 0c3d 8c8e 56be 1de8 adbd 49b2 d6bd
000000e0: 6e90 633b 2743 04bd 0ee6 82bd 3635 aebd
000000f0: a129 0cbd a386 89bd 4758 96be 26ec 593e
00000100: 4447 373e c80d 85bd db8b 3fbb 8cfe 323e
00000110: a338 573e 5b80 8ebd fc4d 083d 6677 de3d
00000120: 8da8 87be 8e93 12be 4421 8cbe 47b2 a63d
00000130: 9c48 2f3d dde4 83be 079e 6cbe 2dc2 f5bc
00000140: 09ce e7bd 93a2 9ebd 17d1 91be 7e42 9abe
00000150: 3867 66bd 9199 92be 11f3 82be 403e acbd
00000160: 0757 a7bd f2b0 69be 3cf4 083e 2711 3b3e
00000170: 94a6 163d 62fb e53c 225e 7b3e ae91 823e
00000180: 2dfc 213e 29b4 2fbc 89af ffbd 4103 35be
00000190: 091f eb3c 6eca 9ebd 604e d6bc c73f 8cba
000001a0: cf30 3c3e 6fb7 4c3e 15b3 cd3b 5cd8 5fbd
000001b0: 62bd d83c 712b d1bd a18e 8fbe 3551 37bc
000001c0: 3c50 c03d 11af 79be 83e1 e9bd 7620 3cbd
000001d0: dcee 79be fdc9 e4bd 5468 303e 3890 1cbd
000001e0: a89f 263e 9338 3c3d cd8c a03d d134 b2bd
000001f0: be08 9fbc 6487 1c3e 466f c53e b3ea ee3d
00000200: 7179 fa3d 0ffd d23e f4e7 a9bc 44b3 5c3e
00000210: 0e0b 033e bc62 633d 7934 293e 1eee 91be
00000220: 221f c4bd fe3e 213e bd4d 133c e085 86bd
00000230: 95c0 9cbc 606f 173e 267e ef3d 479f 293e
00000240: 781f febd 4e58 bb3d 65a5 bb3d e76e bb3d
00000250: 4ae4 953e 7671 643e 0890 823e 5044 743e
00000260: bbeb 573e a728 5bbd ba79 2cbe 613d 18be
00000270: 7865 dfbd 661b b2bd c20d 043e 4f84 d13d
00000280: 0ac3 63bb a8ae dcbd 5dcb 863e 38db 733e
00000290: 51c7 473e 96ca 313e d64e edbd 0171 c3bd
000002a0: edb1 64be 4848 e1bd d14a 6dbe 9526 573e
000002b0: c1a5 9e3d d8a5 333e dddf 24be 2c5d a0bd
000002c0: fdbd 8fbb 6a06 6cbe 8adc 1c3c f5d2 58be
000002d0: a62f 233e c6d5 c6bc f692 a43d acc5 2fbd
000002e0: a794 ad3d 8292 193e 0398 42bd 2e21 dbbd
000002f0: 2f29 dbbd e2e2 583e 9e8e 493b 9446 d93d
00000300: 8f3c ecba 77e9 343e 1b65 e53d e58d 6f3e
00000310: aa0e 3e3e 8f93 933d 8c53 62be c736 f4bd
00000320: 6b56 bbbd 51db 31be ec89 fabd baac b1bd
00000330: 6a21 98be b7a8 a1be 7a6d 91be dddf 9a3d
00000340: 7de0 bd3c c5c1 b93d 97be 453c a3a0 a2bd
00000350: 1060 443d e879 433e a8dc 72bd 773f 563e
00000360: 5170 3fbd 35fd 9d3d ca32 a7be 2486 6cbe
00000370: d15f c43c 0794 83be 618c 68be d432 e93c
00000380: 9517 b4bc b1f1 a0be b2c1 9a3d 3d90 52be
00000390: 1a23 f43d 64db 033d 1de5 22be e011 9bbe
000003a0: 85a0 9dbd a426 c9be eb46 b8bd d135 0cbe
000003b0: e42c bdbd c46f 63bd f19e 853c 7fee 45be
000003c0: 4b24 00bc 3b5f 34be 8b6e 243d 307c 413e
000003d0: 0801 81bd 08ac 2fbc 6ad7 da3d 34cd a3bc
000003e0: ffa6 42be b9aa 9e3d 8912 a73d 5ccb 23be
000003f0: 02e9 55be e8d0 cfbd a9fc cabc af3d 39be
0.15443605 0.050661456 0.12082651 0.16202377 -0.07307392 0.07686658 -0.009803796 0.12275637
-0.05044983 -0.03557745 -0.10919974 -0.21817532 -0.24280068 -0.13096994 0.0064848154 -0.00800006
-0.15035248 -0.1366759 -0.08220864 -0.3861306 -0.18708779 -0.28982034 -0.16150337 -0.33938953
-0.18584204 -0.15212436 -0.059388302 -0.07736399 0.11740862 -0.24005222 -0.052536223 -0.2256127
-0.045920186 0.05112979 -0.09097815 0.0439342 0.06506587 -0.080344036 0.21584155 0.24595825
0.21175861 0.23625882 0.20430116 0.23287413 0.26498586 -0.057366095 -0.2020865 -0.17431584
-0.020790292 -0.057933185 -0.08055196 0.11776393 0.034222707 -0.20952815 -0.08491538 -0.10483224
0.0034723538 -0.032290604 -0.06391536 -0.08506243 -0.034219388 -0.06715133 -0.29364225 0.2128149
0.1789828 -0.06496769 -0.0029227647 0.17479914 0.21017699 -0.069580756 0.033277497 0.10862617
-0.26495782 -0.143141 -0.2736913 0.081394725 0.042793855 -0.25760546 -0.23107158 -0.029999817
-0.11318595 -0.07745852 -0.28479835 -0.30128855 -0.05625078 -0.28632787 -0.2557607 -0.08410311
-0.08170896 -0.22821406 0.13374418 0.18268262 0.036779955 0.02807397 0.24547628 0.2550177
0.15818854 -0.010724106 -0.124846525 -0.17677023 0.028701322 -0.07753454 -0.026160419 -0.001070016
0.18377994 0.1999185 0.0062774518 -0.054649696 0.026457492 -0.10213364 -0.28038505 -0.011188795
0.093903035 -0.24383189 -0.11419966 -0.045929395 -0.24407524 -0.11171339 0.17227298 -0.038223475
0.16271842 0.04595239 0.078393556 -0.0870148 -0.019413348 0.15286022 0.38561457 0.11665859
0.12230194 0.41208693 -0.020740487 0.2155276 0.12797186 0.055514082 0.16523923 -0.28501981
-0.095762506 0.15746686 0.008990702 -0.065685034 -0.019134799 0.1478858 0.11693983 0.16564666
-0.12408346 0.09147702 0.09162406 0.09152012 0.29275733 0.22308907 0.25500512 0.23854184
0.21086018 -0.053505566 -0.1684331 -0.14867164 -0.109080255 -0.08696632 0.12895873 0.10230314
-0.0034753704 -0.107755005 0.2632703 0.23814094 0.19509627 0.17362437 -0.115873024 -0.09543038
-0.22333498 -0.11000115 -0.23173071 0.21010812 0.07746459 0.17543733 -0.16101022 -0.07830271
-0.004386662 -0.23049322 0.009574065 -0.21174224 0.15936145 -0.024271857 0.08035843 -0.042913124
0.08475619 0.14997295 -0.04750825 -0.10699688 -0.107012145 0.21180299 0.0030755172 0.10609165
-0.0018023419 0.17667185 0.11200925 0.23393972 0.18560281 0.07205879 -0.22102183 -0.119245104
-0.09147342 -0.17368819 -0.12233338 -0.08675523 -0.29712993 -0.31574032 -0.28403836 0.0756223
0.023178333 0.09070162 0.012069366 -0.07940795 0.047943175 0.19089472 -0.059292465 0.20922647
-0.046737973 0.07714311 -0.32655936 -0.23098046 0.02397147 -0.25698873 -0.227098 0.02846662
-0.021983901 -0.31434396 0.07556476 -0.20562835 0.119207576 0.03219165 -0.15907712 -0.30287075
-0.07696632 -0.39287293 -0.089979015 -0.13692404 -0.09237078 -0.05552651 0.01631114 -0.1932926
-0.007821153 -0.17614453 0.040144484 0.1889503 -0.06299025 -0.010722168 0.10685618 -0.01999531
-0.19009016 0.077474065 0.08157832 -0.15995544 -0.20889667 -0.101472676 -0.02477868 -0.18089937

layer1.0.bias f4 [16]
00000000: c467 26bb 05be 99bd d06c fdbd fd4b 0ebe
00000010: 225b 8e3d a796 8abe 2625 0cbe fedb fd3d
00000020: cd56 323e 1783 263e effb 243d d2c9 733e
00000030: 575b 07bd 3ff5 723d 2d1a 21be 3781 3cbe
-0.002539144 -0.075069465 -0.1237427 -0.13896175 0.06950976 -0.27068064 -0.13686046 0.12395476
0.17415924 0.16260944 0.040279325 0.23807457 -0.033046093 0.059315916 -0.15732642 -0.18408667

layer1.1.weight f4 [16]
00000000: aae2 283f df1f 673f cc18 853f 4edf 273f
00000010: 60ca 4c3f 222c 423f e014 913f b6e5 8e3f
00000020: a763 833f 770e 6d3f 8e9e 523f 6842 4b3f
00000030: 0987 823f 9138 803f edf8 9d3f cdb4 903f
0.6597086 0.90283006 1.0398192 0.6557511 0.799963 0.7584859 1.1334496 1.1163852
1.0264786 0.92600197 0.82273185 0.793982 1.019746 1.0017263 1.2341591 1.1305176

layer1.1.bias f4 [16]
00000000: a8dd debd 8729 963d d341 51be 9199 8bbe
00000010: 5aab 84be 4aad 1dbd 66c9 95be ef8f 863d
00000020: b4d2 a3be ff4b e43d 7459 863d 32f5 38be
00000030: e6d9 d4bb fc55 05be 328b 0fbe 111a 93be
-0.10882121 0.073321395 -0.20435266 -0.272656 -0.2591198 -0.03849534 -0.29255217 0.06570422
-0.3199669 0.111473076 0.065600306 -0.18062285 -0.006495702 -0.13021082 -0.14017943 -0.28730825

layer1.1.running_mean f4 [16]
00000000: 49d2 73bf e8b9 673d 3ef1 1dbf 1557 14bf
00000010: 72e6 a73e 6202 ae3e d0a0 18be da63 253e
00000020: d560 9fbf 17a6 333e 1adf 473e d932 823f
00000030: bca3 6a3e 31d9 a6be 235f 1fbe 5ba3 87be
-0.95242745 0.05657378 -0.6169623 -0.57945377 0.32793003 0.33986193 -0.14905095 0.16151372
-1.2451426 0.17543827 0.195187 1.0171767 0.22914022 -0.3258758 -0.15563636 -0.26491818

layer1.1.running_var f4 [16]
00000000: 6809 bd3e 7996 a43c c23f cd3d 611d 803d
00000010: 639a d73d 3e89 b43d 2885 953b 3141 b93c
00000020: e7de 003f b46e 0f3d 15a1 013d 543d 5b3e
00000030: b10e 283d 3606 4e3d 6550 833b 68b3 083c
0.3692124 0.020091282 0.100219265 0.062556036 0.10527494 0.08815239 0.0045629926 0.022614093
0.5034012 0.035017684 0.03164776 0.21410114 0.041029636 0.050298892 0.0040073865 0.008343555

layer2.0.weight f4 [32, 16, 3, 3]
00000000: 40e1 b3bd 769a 3ebd 9ffd 02bd c67c 80bb
00000010: b56d 27bb 030a db3c 430a 92bd 148c bcbd
00000020: fab6 973b 3f9f 363e 9024 833d c301 b13d
00000030: 981e 5d39 f8b2 83ba da59 9bbd 35e5 7e3d
00000040: 356e bf3c 0bbc 5b3d e28a eabb 8dd7 0fbd
00000050: 9e84 2aba 8b4f aabd 65d9 48bd dff2 18bd
00000060: fa1a cabc 4991 8cbc 6d8e 86bd dfdc de3d
00000070: 4b90 263d d84e 2f3d 6728 10bd fd73 ee3c
00000080: fc8a b0bd b603 7f3c ff27 49bc 682a f4bd
00000090: 9577 09bd b5ac a13d 8494 a83d 7451 bc3c
000000a0: aeae 76bc 922a e8bc efcd dfbd 8720 81bd
000000b0: f4ee 32be 9866 a13e fc6d cf3d abcd 173e
000000c0: 9bd4 753e f85a b23d b998 db3d 9dba e43d
000000d0: 3924 c73d 2310 d43d 0aed ab3e 67b4 9b3e
000000e0: 6ca6 cc3d 3234 063e f7c4 413d 4237 443d
000000f0: de9f d9bc 6a03 ee3d 6103 0ebe 9089 78bc
00000100: 612d f63c 902e 8a3d dd8f 723d 7f46 363d
00000110: 3c77 d43d bb23 0f3d 2f4b 94bd 2bd5 933c
00000120: c5e2 fbbd 982d dbbd a978 aabd eaf2 21be
00000130: 2081 cfbb cad9 6abd db53 dbbd 1d44 a9bd
00000140: c873 eabd a491 193e c4c3 ad3d ddf4 de3d
00000150: eb9d 103e ef96 99bd 1e1c cdbd 342d 53bd
00000160: 2ed8 0c3d 1cb8 63bc c234 343e ba8a 7b3d
00000170: b2ff fa3d c7c2 7b3d d150 fc3d 4453 1d3d
00000180: 9042 be3d 1ade 473d b0ce 7ebc a572 fc3d
00000190: 0c36 1f3e 3e50 083c 79e5 fe3d 4643 75bd
000001a0: 46f4 d53c fcd8 13bd 918d 0f3d d6e7 773d
000001b0: feb7 273d 678a 2e3e 8e3a 0a3d e0d9 4c3e
000001c0: f167 273e 983d 203e 0f7d f13d e600 193e
000001d0: 9e93 093e b0ec 2cbd dffc 89bc dd52 f53d
000001e0: bf64 1fbe a294 75bd 14e7 5c3c 79a0 17bd
000001f0: 0287 f3bd b1bc 09be 07e1 ce3e 748b 123e
00000200: fed7 c63c fa36 4d3e 37b3 6dbe 9ef8 05be
00000210: dc94 ebbd cb37 9cbd 7ce2 84bd e6a8 633c
00000220: e712 9fbd 909f e1bd 331e c53d e0b7 3bbd
00000230: 60d7 d3bd 6a19 1cbc d9be b8bd 489f cb3a
00000240: fed6 dcbd 6ad3 05be 8e20 3fbd b3dc 2fbe
00000250: a048 31be 21fe 8cbd 6a18 94bd ce75 24be
00000260: cbe5 93bd 2d0f 6c3d 0b54 363d 4af5 bb3d
00000270: 5908 4b3d 02cd 49bc 4d7e 923d 4ba1 a83d
00000280: cff2 053e 95c7 fb3d a78c 3bbd e900 0cbe
00000290: 8267 fdbd 0647 35be 8269 34be 3bb2 c1bd
000002a0: 7b5c 2abe 877b ffbd 6b4d ffbd 3202 3c3d
000002b0: f0ae 843d 0c12 ed3d 488b 5c3c b322 ca3d
000002c0: 1200 d93d 20a1 863d 3e14 5f3c 6f73 bb3d
000002d0: 8772 0cbd f0fb 34bd 537a b2bd 9d18 17bd
000002e0: 8946 afbd 9725 92bd 50d5 513d d951 2cbb
000002f0: 2197 263c 7403 c03d 9429 183d bcae 423d
00000300: 5384 403d 6a4f 083d d31c 17bc 0223 1f3d
00000310: 25b0 c4bc d942 70bb bcb2 10bf 2d5a 9cbe
00000320: cd6b 07bf 00c2 c7be ce0e 93be 4c3f a3be
00000330: 8e83 96be 6376 61be ee9f 72be 4e53 f5bd
00000340: 54ab cf3c 2e26 b5bc 7520 73bd aadf a1bd
00000350: af00 003d 795f d9bd ad36 89bd b7d1 a2bd
00000360: ddb7 1cbd d5d5 c5bc c49d eabd 653b 3bbe
00000370: 97ee 8abd f171 3dbe b6bc 6cbe 90ba 92bd
00000380: 9892 04be 8a56 a5bc df7b 86bd e559 75bd
00000390: 52e6 80bd d318 7e3c ed03 c7bd 1017 9b3b
000003a0: 6405 02be 42ba 29bd 47cb d0bc 49f1 c23d
000003b0: 49a5 2fbd c6c3 0b3e 4ecb 723d b3d3 1a3d
000003c0: 28c3 7a3d e276 6e3c cccb c33d 8a5e 193e
000003d0: 4c94 1bbc a75b 67bc 96af e53c 32a7 7c3d
000003e0: 817f b13d b49b 243e 8761 b83d 1423 b83d
000003f0: 9113 a2bd 6b8f 86bc a897 a23d 55ef 8abc
-0.087831974 -0.046534024 -0.031980153 -0.003921124 -0.0025547568 0.026738172 -0.071308635 -0.09206405
0.004629967 0.17834185 0.06403458 0.08642914 0.000210876 -0.0010047844 -0.07585497 0.062230308
0.02336798 0.05364613 -0.0071576694 -0.035117675 -0.0006504747 -0.08315953 -0.04903545 -0.037340995
-0.024671067 -0.017159121 -0.06570134 0.108819716 0.040664952 0.0427998 -0.03519478 0.029108042
-0.08620259 0.01556485 -0.012277602 -0.11922151 -0.033561308 0.078942694 0.08231452 0.022988059
-0.015056295 -0.028340612 -0.109279506 -0.06305032 -0.17473966 0.31523585 0.101284 0.1482455
0.24006884 0.08708757 0.10722489 0.11168406 0.09723706 0.1035464 0.33579284 0.30411074
0.0999268 0.13105848 0.04730698 0.04790426 -0.026565488 0.11621745 -0.13868476 -0.015169516
0.030050935 0.06747162 0.05921923 0.044500824 0.10374305 0.034946185 -0.07240903 0.018045982
-0.12299112 -0.10702056 -0.08323795 -0.1581532 -0.0063325316 -0.057336606 -0.107093535 -0.08264945
-0.11447865 0.14996964 0.08484605 0.10886548 0.14122741 -0.074994914 -0.100151286 -0.05155678
0.034385853 -0.013898876 0.1759825 0.061411597 0.12255801 0.06146505 0.12320102 0.038409486
0.092900395 0.048795797 -0.015552208 0.12326554 0.15547961 0.0083199125 0.12446112 -0.05987861
0.026117455 -0.036095604 0.035047118 0.06052383 0.040946953 0.17044984 0.03374725 0.20004988
0.16348244 0.15648496 0.11791431 0.14941749 0.13435218 -0.04221791 -0.016844211 0.119786955
-0.15565775 -0.0599562 0.013482828 -0.037018273 -0.11890985 -0.13450886 0.40406057 0.1431101
0.024272915 0.20040503 -0.23212896 -0.13083121 -0.11503002 -0.07627829 -0.06488511 0.013895249
-0.07767277 -0.11016762 0.09624901 -0.045829654 -0.10343814 -0.009527544 -0.09020776 0.001553514
-0.10783194 -0.1306893 -0.046661906 -0.17174034 -0.1731286 -0.06884409 -0.07231219 -0.16060564
-0.07221564 0.05763166 0.044513743 0.091776446 0.049568508 -0.012316944 0.07152996 0.08233889
0.13080905 0.122939266 -0.045788433 -0.13672222 -0.12373258 -0.17702875 -0.17618373 -0.09457823
-0.16636841 -0.12474733 -0.12465938 0.04590053 0.06478679 0.11575708 0.013460942 0.098698996
0.105957165 0.06573701 0.013615666 0.091528766 -0.03428891 -0.04418558 -0.08714738 -0.036888707
-0.085583754 -0.07136076 0.05122882 -0.0026293902 0.010167868 0.09375659 0.037149027 0.04752992
0.047001194 0.03327886 -0.009223181 0.038851745 -0.024009774 -0.0036660938 -0.56522727 -0.3053755
-0.52898866 -0.39015198 -0.28722233 -0.3188423 -0.29397243 -0.22017817 -0.23693821 -0.1197878
0.02535025 -0.022112932 -0.059357125 -0.07903989 0.031250652 -0.10613913 -0.06699882 -0.07950156
-0.038261283 -0.024149815 -0.11455873 -0.18284376 -0.06783789 -0.18500496 -0.23118863 -0.0716449
-0.12946546 -0.020182867 -0.06566595 -0.059900183 -0.0629393 0.015508848 -0.09717546 0.004732974
-0.12697369 -0.041437395 -0.025487555 0.09518678 -0.042882238 0.136489 0.059275918 0.03779955
0.06122127 0.014554711 0.095603555 0.1497747 -0.009495806 -0.014120973 0.028037827 0.061682887
0.086668976 0.16075021 0.09002977 0.089910656 -0.07913888 -0.016425809 0.079390824 -0.016959826

layer2.0.bias f4 [32]
00000000: bd36 ae3d 44c5 013e 7736 833d 6540 1abe
00000010: 1047 fdbd bd15 b73d a7c9 06bd 9864 113d
00000020: 1ccd a3bd fd1b 57bd 0fe6 c13d 9e7d 90bc
00000030: 51cd 80bd e6ef 25bd c75f 7bbd 7be7 34bd
00000040: 49a8 1dbe 9792 90bd da7f 093e 6a02 003d
00000050: aa10 11bb 605a 94ba 5a0c 743d 8af8 5cbc
00000060: 04dd d63d 0561 993d 0653 6b3d 221f 813d
00000070: 05d5 803e 8069 d3bd b8c8 f73c e2f0 08bd
0.08506534 0.12672907 0.06406873 -0.15063627 -0.1236707 0.08939693 -0.032907154 0.035496324
-0.07998106 -0.052516926 0.09467708 -0.017638024 -0.06289161 -0.040511988 -0.061370637 -0.04416607
-0.15396227 -0.0705921 0.13427678 0.031252302 -0.0022135177 -0.0011318438 0.059582092 -0.013486991
0.10491374 0.07489208 0.057452224 0.06304766 0.2516252 -0.10322857 0.030247077 -0.03343285

layer2.1.weight f4 [32]
00000000: 2cac 743f 2bcb 853f 17b5 883f 0f7f 823f
00000010: 5d2b 643f 4814 453f 5978 903f a4b9 6b3f
00000020: c26a 623f cb24 983f 8742 843f 1f2e 683f
00000030: ef30 683f 1386 423f 02a4 8d3f 3242 803f
00000040: deb7 753f 34cb 8a3f ce3a 5c3f 1ad8 3b3f
00000050: fbec 683f 47dd 6d3f c147 523f fe06 7d3f
00000060: 0c72 7f3f 206f 8d3f a9ad 5a3f 3478 823f
00000070: 0f2c 813f 634f 593f 4d2d 833f beed 923f
0.95575213 1.0452627 1.0680264 1.0195025 0.8912867 0.7698407 1.1286727 0.9208014
0.8844415 1.1886228 1.0332803 0.90695375 0.90699667 0.7598583 1.1065676 1.0020201
0.95983684 1.0843263 0.8602723 0.7337662 0.90986603 0.9291577 0.8214074 0.98838794
0.99783397 1.1049538 0.85421234 1.0192933 1.0091571 0.8488676 1.02482 1.1478803

layer2.1.bias f4 [32]
00000000: 7346 c7be 0cdf 79bd 6395 01bf c9fa f9bd
00000010: 65e3 5fbe b30f efbd 9d61 93be 613c 3cbe
00000020: 3aab 07be 4109 c7bd dd4a aabe caf9 2abe
00000030: 2f03 c1bd 4dd4 8fbe 4599 babe 5162 d4be
00000040: 34fb f1be b5a9 29be c855 70be fde1 e7bd
00000050: ef09 3abe 99cd c9be e733 51be 6cd8 50be
00000060: a45c c0bd 77fd b6be 3dff f4be 2f02 a8be
00000070: 385b 43be 8155 e1be 47e3 5cbe 9858 efbe
-0.38920936 -0.06100373 -0.5061857 -0.122060366 -0.21864088 -0.11672916 -0.2878541 -0.18382408
-0.13248911 -0.09718562 -0.3326024 -0.1669685 -0.09424435 -0.2809166 -0.3644506 -0.4148126
-0.47261965 -0.16568644 -0.23470223 -0.11322401 -0.18167852 -0.3941467 -0.20429955 -0.20395058
-0.0939267 -0.35740253 -0.4785098 -0.32814166 -0.19077766 -0.44010547 -0.21571074 -0.4674728

layer2.1.running_mean f4 [32]
00000000: 1de4 b53f abff 84c0 2ac1 863f 6b93 7abf
00000010: 1a5d 2840 36e9 7bc0 5e09 4dbf 4f20 95be
00000020: c12d dcbf 4079 3fc0 0ee5 bfbf c0c9 4dbf
00000030: 8ebc 87c0 3442 f1bf fa86 a1be 6a8e 0040
00000040: 89c7 c2bf a4c3 c6bf 36f6 3ec0 18bc 7ec0
00000050: 28c6 18c0 2e4f dbbe c66b 2dc0 2090 abbf
00000060: 23f4 54bf b9d9 f8bf 8532 9f3e 707e 07c0
00000070: 9ede 78bf efc7 8d3f bd20 0ec0 8879 12bf
1.421024 -4.1562095 1.0527699 -0.9788119 2.6306825 -3.936109 -0.8009242 -0.29126212
-1.7201463 -2.9917755 -1.4991777 -0.8038597 -4.241767 -1.8848329 -0.3154829 2.0086923
-1.5217143 -1.5528455 -2.9837775 -3.9802303 -2.3870945 -0.42833847 -2.709703 -1.3403358
-0.83185023 -1.9441444 0.3109323 -2.1170921 -0.97214687 1.107664 -2.2207482 -0.5721669

layer2.1.running_var f4 [32]
00000000: 7e91 8c40 c675 6c41 0994 3f40 c623 8c40
00000010: 8ef2 b840 ec70 ff40 52ab ef3f 7216 9940
00000020: b6bb fe3f 7365 a840 68ed 2e40 d7cf ac40
00000030: fc1e 0d41 3ef7 8d40 c0dc 2140 cfe8 4f40
00000040: cffb d03f 6aa4 6d40 6e89 8a40 88b0 2f41
00000050: d9f4 3940 9f1b 9440 623d b040 ec45 8540
00000060: 8cd4 8440 1ede 8740 a9cf 0b40 8737 eb40
00000070: e5e4 3040 564e 2340 3910 d840 99ee c13f
4.3927603 14.778753 2.9934103 4.379367 5.7796087 7.9825344 1.8724158 4.78399
1.9901035 5.262384 2.7332401 5.400371 8.820065 4.436431 2.5290985 3.2485845
1.6326846 3.71316 4.329276 10.980598 2.9055693 4.6283717 5.507493 4.1647854
4.1509457 4.245864 2.1845496 7.3505282 2.7639706 2.5516562 6.7519803 1.5150939

layer3.0.weight f4 [64, 32, 3, 3]
00000000: 1750 1d3d d30d 653d a920 c93c f2fa 91bd
00000010: df99 b63c bcd4 9c3d 4154 a63c 9761 17be
00000020: 57a2 71bd 17ea 943e eac2 aa3e 3483 8e3e
00000030: 0a0e 4d3e 0a02 883e c1cc 1b3e 003e 8c3e
00000040: 2f9c 3b3e 8130 bd3d 9885 c5bd bd0e 76bd
00000050: 6b9f f0bd 73ec a6bd ea3f febd 96fc 21be
00000060: bf99 9abd a3e7 2bbd d488 32bb 29a8 5bbe
00000070: 5af3 35be 2dcc 61be dc5b 5dbe 8e4a cebc
00000080: 1c3d edbd 1822 17be 5217 f0bd 4914 adbd
00000090: cc1c 9bbd 34b9 043c a7cc b1bd 7544 dfbc
000000a0: f0d8 92bc 160d 97bd 0661 533d bd8c a3bd
000000b0: ece4 1abd e4e3 65bc cee4 853b acb4 d33c
000000c0: 7a36 90bc 3aab ab3c aacc 6fbb 36b6 44bd
000000d0: a550 9b3d 068f 70bd 2fdf 4f3c 99cb 62bd
000000e0: 2599 ec3d 519b 473d bde5 733d acfd dc3d
000000f0: 1e40 16be dac2 fb3c 966d 0a3e c529 223e
00000100: 1ed6 e03c 8324 323d e787 113e 3e22 383d
00000110: ad68 1cbd 57d2 423e efac 7cbd 0a76 703d
00000120: 5ef8 e2bd d6c1 a7bd 3e1d c33d d052 04bb
00000130: 6cec cd3c 7430 b7bc 2c70 923d 759a b43d
00000140: e53c 63bc 1730 22be 29b3 e2bd 6634 18bd
00000150: cbf2 21be 5e5f 17be 6d26 acbd 6db9 e0bd
00000160: 307f 1ebe cefb 20be f8ea 15be 4a00 aabd
00000170: 17e8 aabd 1093 10be 061c 13bd 4299 bcbc
00000180: 64d9 73be a4a6 aebd 25ce 193d 77a5 80be
00000190: c102 7fbe 7ef3 09bd 9c59 44be 08e5 1bbd
000001a0: 32dd 86bd 315d 8dbe a27d 0bbe b1ad 93bd
000001b0: b4b8 113e f8be d73c a5f8 c03a 51f7 963d
000001c0: c041 f03c 1c3a 9fbd 9ce5 8b3c 7cfa 6a3d
000001d0: a742 21bd b81d 03be 2275 e23d 4591 9dbc
000001e0: 946f 063d 0d1d 003d 5cf1 35bd f4cf 9e3c
000001f0: d5f0 bd3d 2dbf 94bd f745 32be 3866 9abc
00000200: aad6 e3bd 6f04 8cbd b614 933c 697a 04be
00000210: cc77 17be 1008 263d 7c77 dfbd fce7 243d
00000220: d059 233e e5dc cc3a d1b6 ecbc 9d5b cb3c
00000230: 0a12 d1bc da5e c6bc f0d1 39bc 1d34 36bd
00000240: 7e21 69be ea71 c7bd 55ae 103c d31e 24be
00000250: 3bc7 acbd 3689 0c3c 6cad 82be a7cd 22bd
00000260: 1cc9 a8ba daf7 06be 8851 6fbc 9e88 7bbe
00000270: 4895 1abe cca0 0bbe c632 c5bc fa26 ccbc
00000280: 7932 43be 3aa5 f2bc 6871 10be 33f3 9ebd
00000290: 10d8 f2bd f154 24be e488 a8bd ad4e 65bd
000002a0: b516 37bd f651 09bd 3927 babd 18e9 f1bc
000002b0: 6667 11bd 47de 8abc d36f fcbc fe83 3cbd
000002c0: b68b 96bc 42dd 06be 9484 c8bd 0769 babd
000002d0: 7641 9abd 3263 043d c8a2 0f3e 5de0 08be
000002e0: 5a27 643c eb66 843d 03c5 f2bd a658 9dbb
000002f0: 0d2c ebbb 907d e6bc 3bae 9dbc 8843 3abe
00000300: d99f e9bd 7629 b9bb d557 82bd 9844 21be
00000310: 9fda bfbd cf03 8cbc 48d4 593d 5fd4 dfbd
00000320: 6256 503d 76eb e5bb 5466 2e3d 65ac d53a
00000330: fd49 53bc 545d 3abd e95f 703c 7e17 953d
00000340: c413 1a3e 4846 4d3e 08b4 203d 5f91 f13d
00000350: 4c92 9a3d 1778 043e 8a2e 8a3e b549 ee3d
00000360: 98b9 1c3c 31b3 853d 0259 7b3d 10f2 a0bc
00000370: cef7 213e 8b6e f03d 3b9f e0bd 70d9 bb3d
00000380: c1ae cb3d eab8 a0bd edd7 9cbd e259 4e3d
00000390: 436c 2c3d 7534 92bd f883 11b9 8f84 563d
000003a0: 38ea a73d bd16 3e3d 45c2 03be 680c ef3d
000003b0: da29 023e 7270 fb3c 1e42 583e bdf7 8c3d
000003c0: 2cc9 583d 3701 3a3d 1ba4 863d 1fe2 eebd
000003d0: 908a 1ebe bdb3 2bbd 0bce 53bd 5c0e 39bd
000003e0: f705 c5bc 09a2 fcbd afe5 aebd 0c62 42bd
000003f0: 0196 16be 9ad9 3ebe af19 05be 496f d4bd
0.038406458 0.055921387 0.024551706 -0.07127942 0.022290168 0.07657763 0.020303847 -0.14783321
-0.05899271 0.29084846 0.33351833 0.27834475 0.20024887 0.26564056 0.15214826 0.27391052
0.18321298 0.09237767 -0.096446216 -0.06007265 -0.117491566 -0.08150568 -0.124145344 -0.1581901
-0.07548856 -0.041968953 -0.00272422 -0.21450867 -0.17768613 -0.22050543 -0.21617073 -0.025182035
-0.11583921 -0.147591 -0.11723198 -0.08451135 -0.07573852 0.0081007965 -0.086816125 -0.027254323
-0.01792571 -0.07375543 0.0516062 -0.07985828 -0.037815973 -0.014031384 0.0040861135 0.025842987
-0.017604101 0.02095567 -0.0036590495 -0.048025332 0.07583741 -0.058730148 0.012687488 -0.055369947
0.115526475 0.048732106 0.059545267 0.107905716 -0.14672896 0.03073256 0.13518366 0.15836246
0.027445849 0.04349185 0.14211999 0.04495453 -0.038185764 0.19025551 -0.06168836 0.05870632
-0.110825285 -0.08191268 0.09527062 -0.0020190962 0.025137149 -0.022361971 0.07150301 0.08818523
-0.013869499 -0.15838657 -0.11069328 -0.037159346 -0.15815274 -0.14782473 -0.08405767 -0.10972867
-0.15478206 -0.15721056 -0.14640415 -0.083008364 -0.08345049 -0.141186 -0.035915397 -0.023022298
-0.23813397 -0.08527878 0.03755011 -0.2512624 -0.24903394 -0.033679478 -0.19174808 -0.038060218
-0.065851584 -0.27610162 -0.13622144 -0.072108634 0.14230615 0.026336178 0.0014722539 0.073713906
0.029328227 -0.07774755 0.01707726 0.057367787 -0.039370205 -0.12804306 0.110574976 -0.019234309
0.032821253 0.031277705 -0.04441963 0.01938627 0.09274451 -0.072630264 -0.17409502 -0.01884757
-0.11124928 -0.06836783 0.017954212 -0.12937321 -0.14791793 0.040535033 -0.10911462 0.0402603
0.1595223 0.0015629797 -0.028895767 0.024823958 -0.025521297 -0.02421515 -0.011341557 -0.044483293
-0.22766683 -0.09738524 0.0088306265 -0.16027384 -0.08436438 0.0085776355 -0.25522935 -0.039746907
-0.0012877318 -0.13180485 -0.014606841 -0.24563834 -0.15096009 -0.13635558 -0.024072062 -0.02492093
-0.19062223 -0.029619802 -0.14105761 -0.0776123 -0.11857617 -0.16048028 -0.08229235 -0.055983234
-0.04469939 -0.03352543 -0.090895124 -0.029530093 -0.035499 -0.016951693 -0.03081504 -0.046024315
-0.018377166 -0.1317034 -0.09790912 -0.091020636 -0.07532017 0.032321163 0.1402694 -0.13366838
0.013925398 0.064649425 -0.11853983 -0.0048018275 -0.007176882 -0.028136045 -0.019248119 -0.18189824
-0.11407442 -0.0056506945 -0.06364409 -0.15748823 -0.093678705 -0.01709166 0.053180963 -0.109291784
0.05086363 -0.0070165945 0.042578056 0.0016301988 -0.012896058 -0.04549916 0.014671304 0.072798714
0.15046602 0.20046341 0.03923419 0.117953055 0.07547435 0.12936436 0.2698863 0.11635152
0.009565733 0.06528319 0.06136418 -0.019646674 0.15817186 0.117398344 -0.10967871 0.09172332
0.09945441 -0.078477696 -0.07658372 0.050378688 0.042095434 -0.07138912 -0.0001387744 0.05237251
0.081989706 0.046408404 -0.12867077 0.11672288 0.12711278 0.030693267 0.21118972 0.0688319
0.052926227 0.045411315 0.065742694 -0.11664223 -0.15482545 -0.04191946 -0.05171017 -0.04517971
-0.024050696 -0.12335593 -0.085399024 -0.047456786 -0.1470566 -0.18637696 -0.12998079 -0.103727885

layer3.0.bias f4 [64]
00000000: 0fc3 d23c 8a12 24bd 203e 433b 2cfc 583d
00000010: 8672 aebc da86 2bbd 9911 1e3d c5a6 d7bc
00000020: 021f 10bd b3df 7dbd 2c85 76bd 0991 643d
00000030: d5a7 303d 787f 3a3d c3d6 36bc d7db cb3c
00000040: 4253 85bc 9fca 363d f08f a6bd 5671 9dbd
00000050: c1e1 0bbd a195 963c ce72 c13b 03cb 14bd
00000060: 944a 72bd 81b8 693d 6968 383d bc63 563c
00000070: 9334 c2bc c947 8d3d 9819 133d a2b4 323d
00000080: ece2 36bd 5c3b 513a 4ee3 62bb e272 58bd
00000090: a734 75bb 39a4 453d f498 ec3c 2893 0e3d
000000a0: f5f3 86bd 8af6 de3c ad25 5f3d f5a2 9dbc
000000b0: 535b f03b cdd6 a2bc fa42 abbc 49fd d1bc
000000c0: 1172 553c ac92 70bd be7a 4cbd b595 803d
000000d0: f35a 5e3d d3dd cc3b 5230 a53c f833 a0bc
000000e0: f02f 1e3d f28a 563d 26a8 15bd 3557 a73c
000000f0: dfb6 84bb ef74 683c 8a97 55bd 0496 09bb
0.025727777 -0.040056743 0.0029791668 0.052974865 -0.021294843 -0.04187665 0.038591 -0.02632464
-0.03518582 -0.061980914 -0.060185596 0.05580238 0.043128807 0.04553172 -0.011159602 0.024885101
-0.016275052 0.04462683 -0.08132923 -0.07687633 -0.034150843 0.018381895 0.0059035784 -0.03632642
-0.059153154 0.057060722 0.04502145 0.013085302 -0.02370671 0.068984576 0.03591308 0.043629296
-0.044650003 0.00079815625 -0.0034620347 -0.052843936 -0.0037415416 0.048252318 0.028881527 0.034808308
-0.065895 0.027217168 0.05447929 -0.019242743 0.0073351054 -0.019877816 -0.02090596 -0.025633471
0.013027684 -0.058733627 -0.049921744 0.06278554 0.054285955 0.0062520294 0.020164642 -0.01955603
0.038619936 0.052378602 -0.036537312 0.020427326 -0.0040501202 0.014188035 -0.052146472 -0.0020993957

layer3.1.weight f4 [64]
00000000: fd0b 2c3f da39 863f cc52 5f3f 74e3 643f
00000010: 694b 633f a27b 7c3f 5e46 693f 7294 5f3f
00000020: e258 3e3f e2fb 833f 7558 8b3f 071f 793f
00000030: c166 823f c484 6f3f 5b12 5f3f 4591 8d3f
00000040: 4276 3c3f da0f 433f 29df 823f 8a7d 823f
00000050: 4545 883f 8b26 823f 68b1 863f f34d 843f
00000060: fe97 643f 146f 8e3f f6de 853f b4de 833f
00000070: 56b9 633f 8d09 863f 0cee 733f ee52 643f
00000080: 42d5 3a3f 4436 8c3f e0fc 843f 2c77 9d3f
00000090: 7ab5 6d3f 5822 783f 65c9 6e3f 7b30 823f
000000a0: da9c 883f a16a 573f bbf0 793f 09b2 8a3f
000000b0: 0ff9 4e3f 7633 663f a9a7 7b3f 999d 733f
000000c0: ca9c 943f e64a 6e3f fe1c 353f cac4 313f
000000d0: b8da 873f 857b 823f 8dda 6e3f b0b4 5d3f
000000e0: b8ec 603f e290 8e3f ad9e 793f 1415 613f
000000f0: f808 853f 8a2e 733f 05b1 563f 5c3b 8c3f
0.6720579 1.0486405 0.87235713 0.89409566 0.8878694 0.9862615 0.91122997 0.87335885
0.74354374 1.0311244 1.088637 0.9731297 1.0187608 0.9356196 0.87137383 1.1059958
0.7361795 0.7619606 1.0224353 1.0194561 1.0646139 1.0168012 1.052289 1.0336288
0.8929442 1.1127648 1.0458667 1.0302339 0.88954675 1.0471665 0.95285106 0.8918904
0.72981656 1.095406 1.0389671 1.2301993 0.92855036 0.96927404 0.93276054 1.0171045
1.0672867 0.8414708 0.9763295 1.0835582 0.80848783 0.89922273 0.98302704 0.9516235
1.1610348 0.93083036 0.70747364 0.694409 1.0613623 1.0193945 0.9330223 0.8660383
0.87861204 1.1137965 0.97507745 0.8792279 1.0393362 0.9499289 0.8386386 1.0955615

layer3.1.bias f4 [64]
00000000: 0246 d0be 3179 35be 4e4f 99be 7cd1 a7be
00000010: cab1 97be e4e2 43be 3693 72be 1959 dabe
00000020: 1d12 9abe 273f c2be 056e 1bbe 42ea 2abe
00000030: a04d 44be 2b98 43be 221f 9fbe fb5d 83be
00000040: ef95 b0be 7978 a9be 357c 97be 5656 76be
00000050: db40 fabd ba86 87be 11d3 58be 4480 57bd
00000060: eb53 0dbe 9a3e 96bd e3c7 1ebe 80f4 82be
00000070: 582c e3bd 99ba c4be b487 cbbe 81fd 81be
00000080: c292 debe 4823 5cbe c948 23be b371 8fbe
00000090: 655c 76be aa0e 2dbe 1714 80be 8d18 2abe
000000a0: 90fd b9bd f66a afbe dd77 95be 44a0 dcbd
000000b0: 3b04 95be 008c afbe 2338 97be f685 7abe
000000c0: c710 c6be 6c69 11be dbd1 a7be 9599 d5be
000000d0: 7eb4 0dbe 5882 19be 0362 7dbe 8272 8fbe
000000e0: cfc1 28be b640 95be eb13 36be 0aec 61be
000000f0: abd5 86be 947e 84be ade4 5dbe 264e 8fbe
-0.40678412 -0.17722012 -0.29943317 -0.3277701 -0.2962783 -0.1912952 -0.23688969 -0.426461
-0.30091944 -0.37938806 -0.15178688 -0.16690925 -0.19170237 -0.19101016 -0.3107844 -0.2565764
-0.3448939 -0.33099726 -0.2958695 -0.24056372 -0.122194014 -0.26469976 -0.21174265 -0.052612558
-0.13801543 -0.07336159 -0.15505938 -0.25577164 -0.11092442 -0.38423613 -0.3975197 -0.2538872
-0.43471342 -0.21497834 -0.15945734 -0.28016433 -0.24058683 -0.16900125 -0.25015327 -0.16610928
-0.09081566 -0.34261292 -0.2919301 -0.10772756 -0.2910479 -0.342865 -0.29535016 -0.24465165
-0.38684675 -0.14200372 -0.32777295 -0.41718736 -0.13838384 -0.14991128 -0.2474442 -0.2801705
-0.16480182 -0.29150933 -0.17781036 -0.22062698 -0.2633489 -0.2587782 -0.21669264 -0.2798931

layer3.1.running_mean f4 [64]
00000000: 71fe 96c0 140c 2bc0 115c f53e e394 3cbf
00000010: 1837 06c0 b20c 80bf aeaf 593e aed3 c13f
00000020: 94f2 b2bf 7ed1 1ac0 11dd 0240 5e46 8ebf
00000030: 102a fd3f 7b61 b83f 8729 3cbe 24af 3840
00000040: f1bc 68c0 44e8 38c0 089c c43f 3ac0 b63f
00000050: b8bf 56c0 af3e 8040 49d5 a63f b79e 2140
00000060: 4acd 87c0 41b9 55c0 b53b 3dbf 641a f4bc
00000070: d4e0 99c0 4eaf bcbf 259f f5be 1191 a8c0
00000080: 55ee ef3f ebb9 05c0 85cf 4040 e41d 0840
00000090: fa84 063f 7b95 a6bf 3aca 1ec0 9eab 1e3f
000000a0: 12c2 edbe 975d 87be a2a0 3fbf ffbc 18c0
000000b0: 55fb d9bf 15e6 1abe f9f9 f53f 44e0 bbbf
000000c0: 446f 7a3f 07dd 6fc0 bed0 72c0 d40c 22c0
000000d0: 7a52 3ec0 0ee6 1d40 6a0d fd3e abef 4740
000000e0: d0e8 f9bf 4c9d b7be 480b 393e 179d 09c0
000000f0: 0dc8 80c0 f9ab 923f 5952 173f a445 5a40
-4.7185597 -2.6726122 0.47921804 -0.73664683 -2.0971127 -1.0003874 0.21258423 1.5142725
-1.3980279 -2.4190364 2.0447428 -1.1115224 1.9778461 1.4404749 -0.18375216 2.8856897
-3.636532 -2.8891764 1.5360117 1.4277413 -3.3554516 4.007652 1.303384 2.5253122
-4.2438097 -3.339432 -0.7391923 -0.02979774 -4.808695 -1.4740999 -0.4797298 -5.2677083
1.8744608 -2.0894725 3.012666 2.1268244 0.52546656 -1.3014368 -2.481093 0.6198062
-0.46437126 -0.2643859 -0.7485448 -2.3865354 -1.7029825 -0.15126832 1.9216911 -1.4677815
0.9782603 -3.7478654 -3.7939906 -2.532033 -2.973784 2.4671664 0.49424297 3.1240032
-1.9524174 -0.35862195 0.1807071 -2.150213 -4.0244203 1.1458732 0.5911003 3.4105005

layer3.1.running_var f4 [64]
00000000: f491 c041 fb12 eb40 773b 8440 28c9 8e40
00000010: 2e8a 8240 28f4 2841 77bd e840 13c2 1f41
00000020: 0bdd df40 2d70 d740 cb3c 0341 7a58 3541
00000030: 4e25 9b40 ab35 2641 021e ea40 3c0c c940
00000040: be1c 7541 30d0 5841 fe2b 8140 be04 8340
00000050: 8f55 f440 1f88 c440 adee a740 ee84 2241
00000060: 9efd 8b40 9a25 fc40 5d2b 0741 5588 8640
00000070: 43fc 0241 9f7e fa40 3007 f340 d6d8 c440
00000080: 2e92 ae40 f9bd 8040 67e5 f240 fa31 0541
00000090: d9a2 a740 f797 0441 d364 aa40 35b4 2e41
000000a0: a680 e640 32ac ab40 f5cc 6440 b81d f940
000000b0: 1850 7740 42c8 8240 4863 a240 3835 5940
000000c0: b9ee a140 c988 0741 dd57 8e41 95ca 2341
000000d0: 9087 db40 b7d1 0041 be2c 3741 fd42 7541
000000e0: d0bb a540 f191 9040 b6ff d240 8723 c340
000000f0: 26a1 a240 a293 4a40 4b42 2d41 9d2a a940
24.071266 7.346067 4.132259 4.462055 4.0793676 10.559608 7.273128 9.984881
6.995733 6.7324433 8.202342 11.334101 4.848304 10.388103 7.316163 6.2827435
15.319517 13.550827 4.03662 4.094329 7.635444 6.1416163 5.247885 10.157454
4.374709 7.87959 8.448087 4.204142 8.186587 7.8279567 7.5946274 6.151469
5.455344 4.02319 7.590503 8.324701 5.238629 8.287101 5.3248076 10.918996
7.203204 5.36477 3.5750096 7.784878 3.8642635 4.0869455 5.0746193 3.3938732
5.060391 8.470895 17.792902 10.2369585 6.860298 8.0512 11.448423 15.328855
5.1791763 4.517815 6.5937147 6.098087 5.0821714 3.1652608 10.828685 5.286452

fc1.weight f4 [10, 576]
00000000: e3c5 d93c 5d02 1ebb f7f1 8ebc fcfc 883c
00000010: 7205 2abc 85ac d53b 0689 e0bc a82f 63bb
00000020: 54a8 013d 02f2 87bc bd97 ed3c 255d e0bc
00000030: 26c3 aa3b 5bf5 4bbd fe3e 823b 02f5 c5bc
00000040: c3f2 91bc d6f3 23bd 2c0c b93b e6d6 67bc
00000050: 2a41 fdbc ba95 1a3d 6f6c c3bb 05b8 1bbd
00000060: cf62 c4bb 0007 d0bc 89ec bb3c 6844 50bc
00000070: 3743 36bd 0095 b03c 2ac1 bebc 4f42 3bbc
00000080: ef9a d03b 0cd6 5ebc 3454 bb3c 5205 90bc
00000090: 6dc5 00bd c024 28bb 0dc4 81bc f8a4 d53c
000000a0: 5a8a e33c 1f18 753c 35cc dcbc 48f3 fcbc
000000b0: 898e 9cba f7e9 2fbd 402a d33c 8577 dd3c
000000c0: d8f3 39bd 45c5 89bc a73b 58bc cade f1bb
000000d0: abfc 5d3c eb02 0abd 072f 23bc 2fe0 cebb
000000e0: 83e6 fcbb a730 5dbc 0c6a 2ebd 2c8a 45bd
000000f0: 3c2f f83c 3d0b 39bd c74c 06bc 6f8e 84bb
00000100: f42d 31bd 89f5 46bc 528f 4cbd 4e4d 20bb
00000110: b32b 003c 33df 4abb ca86 343b d19d b73c
00000120: 307b fcbc 6618 f5bc 5343 87bc 6d83 e93a
00000130: 109f 283c e033 0f3d 528b 013d 32db d4bc
00000140: 42b6 5f39 42d5 97bc c730 a13c 8000 a0bc
00000150: 1293 dcba 14d3 f9bc 2c1d bbbc 47a6 e33c
00000160: 08cc e33b f8c7 80bc 3a30 1c3c a7fc f6bb
00000170: fa58 b4bb 9714 68bc 0b65 cdbc 2c77 01bd
00000180: a50a 8b3c 56b0 24bd 11d9 e33b 075b 0cbd
00000190: 56c8 f1bc ef92 e03c 9e29 f63c 0087 943c
000001a0: 2c30 a63c 7ac4 c8bc ef76 03bd 0c37 753c
000001b0: 6604 173c d855 35bd b5d8 b2bc 0a19 573c
000001c0: 4395 89bc dd04 133c 59cc 26bd 389f 613c
000001d0: 770b f33c 3f74 88bc 1a06 503c 348d d3bc
000001e0: 0155 203d 6053 00bd d419 57bd 8c36 3cbd
000001f0: f2cd 533c c2c9 29bd b729 31bd 31c6 ef3c
00000200: 3c51 213d 17bc 823c c057 233c 33db 1a3b
00000210: b4f1 743b 9b39 c6bc 42bc 11bd 24c7 f93b
00000220: d44a 28bc e883 0a3b 7b4c 033c 4f32 d63b
00000230: f6ab f6bc f4c0 adbc b587 ca3c 0f4d 9bbc
00000240: 3604 d7bc d8ad afbc 0089 8b3c dcfa aa3a
00000250: 3606 823c fc54 67bc e7f0 febc 0cc0 0a3c
00000260: c598 3cbd 557c 073d 4ca9 2d3b 4af7 35b9
00000270: 4d64 b0bb 27a6 3e3c 5dfe 313c 3c7b 63bc
00000280: 1bad 1f3b 50db 203c 29fd e9bc 1313 3a3b
00000290: 1302 a43c 434b 97bc fc6e 8039 c5a8 21bd
000002a0: 7171 aabc 174f 3dbd 5371 e9bb 121d 0bbc
000002b0: 7cd7 f6bc 992f 2abc df17 c0bc fd56 1abd
000002c0: 5bde ccba 8c6b 0e3c d412 41bd b31d ecbc
000002d0: 9251 28bd fc79 ed3b 75d4 3d3c f944 093d
000002e0: c5d7 5d3c 3bff e4bc f717 30bd 16ad 9b3c
000002f0: 2f86 f3bc 7916 e1bc b6a3 bebc 3d7c 073d
00000300: e36a d7ba e493 a2bc c88f 2ebd 89b8 ddbb
00000310: a38a cf3c 6d6e 013b ba4e 123d 3bba 193d
00000320: 0a45 e53c 39d2 343c 672c d83c 7955 0d3d
00000330: 52b2 2abd 9a23 a8bc bb53 34bd fc49 ed3c
00000340: 1f0b f73c 7bfa e73b 8bfd e1bc 997b 063d
00000350: 73e7 d5bc a05b ebbc 9693 24bc 95d3 e73c
00000360: 14a9 c4bc e95c 99bc 1163 2bbb 3f98 9f3a
00000370: a8f8 91bb cce0 f63c edd1 0abc ced9 5b3c
00000380: 6f81 25bd bcd0 a6bb 5756 b1bc 7c19 093d
00000390: 09f0 c63c 5491 1bbd 1aa6 15bc 52e1 6d3c
000003a0: 188f e63c 135d d8bc 4085 31bd e0ad 2ebd
000003b0: b448 eabc a317 80bc de8f e7bc f563 99bb
000003c0: 748f 2bbd 8ef6 413c e240 863b 122d d4ba
000003d0: 6636 2c3c 9078 4abd 8aea a7bc c4a8 2ebd
000003e0: b6fc d5bc 5089 3fbd 6ff5 fa3c 19f3 15bc
000003f0: 0745 39bc 8274 c8bb 632d 01bc 5919 0dbd
0.026583618 -0.0024110295 -0.017449362 0.016722195 -0.010377275 0.00652081 -0.027409088 -0.0034665857
0.03165467 -0.01659489 0.029003019 -0.027388165 0.005211252 -0.049794536 0.0039747944 -0.02416468
-0.017815953 -0.040027462 0.005647203 -0.014150357 -0.030914862 0.037740447 -0.005963854 -0.03801729
-0.005993224 -0.025393963 0.022939937 -0.012711622 -0.044497695 0.021555424 -0.023285467 -0.011429383
0.006366126 -0.013600837 0.0228673 -0.017580662 -0.03143828 -0.002565667 -0.015840555 0.02607964
0.027775932 0.014959364 -0.026952842 -0.030877724 -0.0011944334 -0.042947736 0.025776982 0.02703453
-0.045398563 -0.016817698 -0.013197816 -0.007381295 0.01354901 -0.03369419 -0.009959943 -0.006313346
-0.007717909 -0.013500369 -0.042581603 -0.048227474 0.03029596 -0.045176733 -0.008197016 -0.0040452997
-0.043256715 -0.012143501 -0.04994137 -0.002446014 0.007822919 -0.003095579 0.002754616 0.02241412
-0.03082046 -0.02991886 -0.016511595 0.0017815657 0.01029183 0.03496158 0.031627007 -0.025983427
0.00021334834 -0.018534306 0.01967658 -0.019531488 -0.0016828498 -0.030496158 -0.022841059 0.027789248
0.0069518127 -0.015720353 0.0095329825 -0.0075374427 -0.005503771 -0.014165065 -0.025072595 -0.03160779
0.01697285 -0.04020723 0.0069533666 -0.034266498 -0.029514473 0.027413813 0.030049141 0.01813078
0.020286642 -0.02450775 -0.032095846 0.0149667375 0.009217357 -0.04427132 -0.02183185 0.013128528
-0.016794806 0.008973327 -0.040722225 0.013770871 0.029668553 -0.016656993 0.012696767 -0.025824167
0.039143566 -0.031329513 -0.052514866 -0.045950457 0.012927519 -0.041452177 -0.043252673 0.02926931
0.03938411 0.015958829 0.009969652 0.0023629188 0.0037375512 -0.02419739 -0.035579927 0.0076226164
-0.010271747 0.002113575 0.00801384 0.006536759 -0.030111294 -0.021210171 0.024722913 -0.018957643
-0.026247125 -0.0214452 0.0170331 0.0013044733 0.015872102 -0.014119383 -0.03112073 0.008468639
-0.04604413 0.033077557 0.0026498614 -0.00017353627 -0.0053830505 0.0116362935 0.010863868 -0.013884362
0.0024364654 0.009817913 -0.028563099 0.0028392717 0.02002052 -0.018468505 0.00024496752 -0.03946759
-0.020806046 -0.046218004 -0.007124105 -0.008490818 -0.030132048 -0.010387325 -0.023448883 -0.037680615
-0.0015630232 0.008692633 -0.047137097 -0.028822755 -0.041093417 0.0072472077 0.011586298 0.033513043
0.013540213 -0.027953735 -0.042991605 0.019003432 -0.02972707 -0.027476536 -0.023271423 0.033077467
-0.0016435053 -0.01984591 -0.04261759 -0.006766383 0.025334662 0.0019749657 0.03571961 0.03753112
0.027987022 0.011036449 0.02638836 0.03450534 -0.041673966 -0.020524789 -0.044025164 0.028965943
0.03015667 0.00707942 -0.027586719 0.032832716 -0.02611134 -0.028730214 -0.010044953 0.028299132
-0.024006404 -0.01872106 -0.0026151577 0.001217611 -0.004454691 0.030136488 -0.008472902 0.013418628
-0.04040664 -0.005090801 -0.021647615 0.03347157 0.02428438 -0.037980393 -0.00913384 0.014519053
0.028144404 -0.026411569 -0.043339968 -0.04264629 -0.02859912 -0.01563627 -0.028266843 -0.0046811053
-0.041884854 0.011838568 0.00409709 -0.0016187748 0.0105110165 -0.049431384 -0.02049758 -0.042641416
-0.026121479 -0.04676181 0.03063461 -0.009152197 -0.011307961 -0.0061174044 -0.007884356 -0.034448

fc1.bias f4 [10]
00000000: b32d e93c 3240 6fbd 7a5e 32bd 8cd3 c63a
00000010: 68ab 45bd df99 6b3d 1a0a 6fbc 0b77 e0bd
00000020: 809e 27bd 0f9f 6abd
0.028464174 -0.05841083 -0.04354713 0.0015169247 -0.04825917 0.05751979 -0.014589811 -0.10960206
-0.04092264 -0.057280596

fc2.weight f4 [2, 10]
00000000: adba 5cbe 8e00 65be b9d0 4dbe b9d7 943d
00000010: f7d0 2dbe 34de 1c3e e3d5 aebc 1aab d23d
00000020: 8ae6 e5bc e745 363b 4ad9 18be 9866 bbbe
00000030: 3bb8 5d3e 9035 833e fba1 87be 19d0 20be
00000040: 0839 52bd 1356 313d 3575 ba3e d482 5b3d
-0.21555586 -0.22363493 -0.20099153 0.07267708 -0.16974245 0.15319139 -0.021342224 0.10286541
-0.028064031 0.002781266 -0.14926639 -0.3660171 0.2165231 0.25626802 -0.2649077 -0.15704383
-0.05132392 0.043294977 0.36417547 0.053591564

fc2.bias f4 [2]
00000000: 4692 f13d 1acd 71be
0.117954776 -0.23613396
