weight.pt (torch, 125998 bytes, 22 tensors)

layer1.0.weight f4 [16, 3, 3, 3]
0	0x3dbb1eda	0.09136744
1	0x3ab7133c	0.0013967524
2	0x3d96d682	0.07365133
3	0x3de9b414	0.114113
4	0xbdcb5077	-0.09927457
5	0x3d1cf99c	0.038323984
6	0xbdd6551a	-0.104654506
7	0x3d0da8b8	0.03458473
8	0xbe19361f	-0.14962052
9	0xbb870904	-0.004120948
10	0xbd84cdf1	-0.06484593
11	0xbe3d4976	-0.18485054
12	0xbe388e0a	-0.18022934
13	0xbd2f5e3f	-0.04281449
14	0x3d82d1d8	0.06387681
15	0xbb4f1ede	-0.0031604092
16	0xbe06d829	-0.13168396
17	0xbe17a90b	-0.14810579
18	0x3ef7c652	0.48393494
19	0x3e496807	0.1966859
20	0x3ea4a7b6	0.32159203
21	0x3e8f2f9b	0.27966008
22	0x3ed3e01e	0.41381925
23	0x3e1edd51	0.15514113
24	0x3e1494e0	0.14509916
25	0x3e37a144	0.17932612
26	0x3e63a259	0.222299
27	0xbe0540c4	-0.13012987
28	0x3db3f1e4	0.08786371
29	0xbe7ac68f	-0.24489807
30	0xbdb33cf7	-0.087518625
31	0xbe6aad76	-0.22917733
32	0xbc296405	-0.010338788
33	0x3d35c68b	0.0443788
34	0xbda28618	-0.079357326
35	0x3dac50f2	0.084138766
36	0xbc06f993	-0.008238214
37	0xbde091ec	-0.109653324
38	0x3e6dce1e	0.23223159
39	0x3e46f81c	0.19430584
40	0x3e57a135	0.2105759
41	0x3e9e1ad3	0.3087984
42	0x3e58bedf	0.21166562
43	0x3e8b1520	0.27164555
44	0x3eb45f38	0.35228896
45	0xbdeb4f13	-0.114896916
46	0xbe4267ec	-0.18984956
47	0xbdc21eb6	-0.09478514
48	0xbd98174d	-0.07426319
49	0xbd0c16d5	-0.03420146
50	0x3c848447	0.016176356
51	0x3da9a12f	0.082826965
52	0x3d70876e	0.058722906
53	0xbdf5ae99	-0.119961925
54	0xbe608b7e	-0.21928212
55	0xbe27c8fe	-0.16385266
56	0xba911174	-0.0011067824
57	0xbe3d249d	-0.18470998
58	0xbdf5f534	-0.120096594
59	0xbd90fc5a	-0.07079382
60	0xbe2e3aaf	-0.17014574
61	0xbdb2ce8c	-0.08730802
62	0xbe61e586	-0.22060212
63	0x3dd69280	0.104771614
64	0x3da6d513	0.081461094
65	0xbe315475	-0.17317374
66	0xbe2a59aa	-0.16635767
67	0x3d357809	0.044303928
68	0x3da0947f	0.078408234
69	0xbe832b15	-0.25618806
70	0xbdd84335	-0.10559694
71	0xbc8e7e10	-0.017394096
72	0xbe33005a	-0.17480603
73	0xbd6a3f46	-0.05718925
74	0xbe51e1f3	-0.20496349
75	0x3e0136b9	0.12618531
76	0x3da81478	0.08207029
77	0xbe688f7a	-0.22710982
78	0xbe50e3e6	-0.20399436
79	0xb9d1eb56	-0.00040038925
80	0xbda03fc9	-0.07824666
81	0xbd8c4867	-0.06849747
82	0xbe941995	-0.28925768
83	0xbe988e79	-0.29796198
84	0x3c93fe6c	0.018065654
85	0xbe735c80	-0.23765755
86	0xbe3c0f5c	-0.18365234
87	0x3d0ad723	0.033896577
88	0x3c36db93	0.011160749
89	0xbdf84c81	-0.12123967
90	0x3db2b239	0.087253995
91	0x3e189d83	0.14903836
92	0x3b3291fc	0.0027247658
93	0xbc459195	-0.012058635
94	0x3e612a1d	0.21988721
95	0x3e76cb3e	0.24100968
96	0x3dcb689c	0.09932062
97	0xbd390c24	-0.045177594
98	0xbe14bce2	-0.14525178
99	0xbe7b3bd8	-0.24534547
100	0xbc991d56	-0.018690746
101	0xbdf0092e	-0.11720501
102	0xbdd3624b	-0.10321482
103	0xbd77cd91	-0.060498778
104	0x3e04a5ee	0.12953922
105	0x3dc06933	0.09395065
106	0xbdcf78eb	-0.10130485
107	0xbe203b27	-0.15647565
108	0xbd96da5d	-0.07365868
109	0xbe4362a8	-0.19080603
110	0xbeb39602	-0.35075384
111	0xbe05bcf7	-0.13060366
112	0xbc2812a4	-0.0102583505
113	0xbeb838d0	-0.35980844
114	0xbe3e74de	-0.18599269
115	0xbe41a994	-0.18912345
116	0xbee08793	-0.43853435
117	0xbe24ea16	-0.16104922
118	0x3e49e1bd	0.19715019
119	0x3c310ff2	0.010807024
120	0x3dff03f6	0.12451927
121	0x3db8721c	0.0900614
122	0x3e044fc8	0.12921059
123	0xbdacdefa	-0.08440967
124	0x3cc93fad	0.024566496
125	0x3e134278	0.14380825
126	0x3da165c9	0.07880742
127	0xbc9ed61e	-0.019389208
128	0x3da2c641	0.0794797
129	0x3e106180	0.14099693
130	0xbe076a19	-0.13224067
131	0x3e2bbb26	0.1677061
132	0xbd46e4b8	-0.048557967
133	0xbc860dba	-0.016363967
134	0x3db22d89	0.087000914
135	0xbe65dce9	-0.22447552
136	0xbdb9d7d5	-0.0907437
137	0x3dc37f0d	0.095457174
138	0x3b3b77c8	0.002860533
139	0xbe01ad96	-0.12663874
140	0xbdebd74e	-0.115156755
141	0x3d779c1b	0.06045161
142	0xbc2265fe	-0.009912012
143	0x3d75506c	0.05989115
144	0xbd9eadd9	-0.077480026
145	0x3dda9a9a	0.10674019
146	0x3d22f4e7	0.03978434
147	0x3d8e016f	0.06933867
148	0x3e67b469	0.22627415
149	0x3df91658	0.12162465
150	0x3e0431df	0.1290965
151	0x3dbc3f36	0.09191744
152	0x3daf3e1b	0.085567676
153	0xbe2c63f4	-0.16835004
154	0xbe8d6203	-0.2761384
155	0xbeb00693	-0.34380016
156	0xbe8781ee	-0.26466316
157	0xbe6d91f2	-0.23200205
158	0xbd917db4	-0.07104054
159	0xbe16a0ca	-0.14709774
160	0xbe7276a8	-0.23678076
161	0xbea5a5bd	-0.3235301
162	0x3e68ddc0	0.22740841
163	0x3e656963	0.22403483
164	0x3e474b97	0.19462429
165	0x3e1d855d	0.15382905
166	0xbde5ebf7	-0.11226647
167	0xbdaacb2e	-0.08339535
168	0xbe6b35d0	-0.22969747
169	0xbddb9845	-0.107224025
170	0xbe625e89	-0.22106375
171	0x3e4790fa	0.19488898
172	0x3dac0cf4	0.08400908
173	0x3e451c49	0.19249071
174	0xbe256224	-0.16150719
175	0xbd6f2947	-0.058388975
176	0x3c8c0bac	0.01709541
177	0xbe612c35	-0.2198952
178	0x3cb677e1	0.02227396
179	0xbe504925	-0.20340402
180	0x3dfd2221	0.12360025
181	0xbd41d1dc	-0.047319278
182	0x3d878543	0.066172145
183	0xbd67d64c	-0.056600854
184	0x3daade2c	0.08343157
185	0x3e1aa0bc	0.15100378
186	0xbd1312be	-0.035906546
187	0xbdcace22	-0.09902598
188	0xbdd5854d	-0.10425816
189	0x3e1775c1	0.14791013
190	0xbd2246d7	-0.03961834
191	0x3e1886c8	0.14895165
192	0xbd8b9e57	-0.0681731
193	0x3e4b1cdd	0.19835229
194	0x3e60c590	0.21950364
195	0x3e2c6948	0.16837037
196	0x3e570edf	0.21001767
197	0x3e1efc56	0.15525946
198	0xbe8410e1	-0.25794128
199	0xbe2ce749	-0.16885103
200	0xbdc1353f	-0.09433984
201	0xbe52e760	-0.20596075
202	0xbdec62dc	-0.115422934
203	0xbd0f5256	-0.03499063
204	0xbea03775	-0.3129231
205	0xbe8e072f	-0.27739856
206	0xbe664df6	-0.22490677
207	0x3d8e2e44	0.06942418
208	0x3a7d8bdc	0.0009672025
209	0x3da3d518	0.07999629
210	0x3c6b5eae	0.014365835
211	0xbd83e55f	-0.064402334
212	0x3da87f77	0.08227437
213	0x3e56c173	0.20972233
214	0xbc8a5a1f	-0.016888676
215	0x3e82c9a8	0.25544477
216	0x3db455ef	0.08805453
217	0x3e76e9fd	0.24112697
218	0xbdae9a61	-0.08525539
219	0xbde00c64	-0.10939863
220	0x3e29c564	0.16579205
221	0xbd61de49	-0.05514363
222	0xbda80b05	-0.08205227
223	0x3e41e2dc	0.18934196
224	0x3e3f1f16	0.18664202
225	0xbef66d95	-0.4813048
226	0xbd0ebb6c	-0.03484671
227	0xbe428881	-0.18997385
228	0xbdc25f65	-0.09490851
229	0xbdafa02e	-0.08575474
230	0xbe4df850	-0.20114255
231	0xbf036f4d	-0.51341707
232	0xbe6ac6cc	-0.22927397
233	0xbefe1a0c	-0.49629247
234	0x3dce5d38	0.10076374
235	0x3d56d001	0.05244446
236	0x3debce4d	0.11513958
237	0x3e15eaa1	0.14640285
238	0x3e42f2ad	0.19037886
239	0xbbaa015e	-0.0051881513
240	0x3e5b697a	0.21426955
241	0x3c8edc91	0.017439159
242	0x3e6ef298	0.2333473
243	0x3ea12b6b	0.31478438
244	0x3c9520dc	0.018204145
245	0x3cf9b5d9	0.03048222
246	0x3e7284cd	0.23683472
247	0x3d7306b4	0.059332564
248	0xbe202715	-0.15639909
249	0x3e37e942	0.17960075
250	0x3ded5757	0.115889244
251	0xbe155be0	-0.14585829
252	0xbe22980a	-0.15878311
253	0xbde581a9	-0.11206371
254	0xbdc5173b	-0.096235715
255	0xbdff2a2f	-0.12459218

layer1.0.bias f4 [16]
0	0xbe5a886d	-0.21341105
1	0xbe0432c3	-0.12909989
2	0xbe12d407	-0.14338695
3	0xbc89613d	-0.01677
4	0xbdb53799	-0.08848495
5	0xbd9b715d	-0.07589982
6	0xbd41eb12	-0.04734332
7	0x3db8ab49	0.09017045
8	0x3bb6b4aa	0.005575736
9	0x3e044185	0.12915619
10	0xbd6c1497	-0.057636824
11	0x3e7668a3	0.24063353
12	0xbc98527b	-0.018594017
13	0xbdcee056	-0.101013824
14	0xbe24c59c	-0.16091007
15	0xbd61a47c	-0.055088505

layer1.1.weight f4 [16]
0	0x3f37544b	0.71612996
1	0x3f53ea61	0.8277951
2	0x3f79c86c	0.97571445
3	0x3f68b58f	0.90902036
4	0x3f7153b5	0.9426835
5	0x3f4a66ab	0.7906291
6	0x3f9874f4	1.1910691
7	0x3fa22507	1.266755
8	0x3f7905de	0.9727458
9	0x3f5e1b60	0.8676052
10	0x3f4ac11d	0.7920092
11	0x3f26e095	0.65186435
12	0x3f678bc0	0.90447617
13	0x3f35423f	0.7080421
14	0x3f9b428f	1.2129687
15	0x3f8a074f	1.078348

layer1.1.bias f4 [16]
0	0xbe9c1197	-0.3048217
1	0x3e9a93a2	0.3019076
2	0xbe92f9e9	-0.2870629
3	0xbe6c41f8	-0.2307204
4	0xbe7a5240	-0.24445438
5	0xbecfb58b	-0.40568194
6	0xbeb2c1e8	-0.34913564
7	0x3e847fbc	0.25878704
8	0xbe94ace9	-0.2903817
9	0xbe661690	-0.22469544
10	0xbd9c5354	-0.07633081
11	0xbec5e5eb	-0.38651976
12	0x3cb9fb0b	0.022702714
13	0xbe991d70	-0.29905272
14	0xbe02c4c0	-0.12770367
15	0xbe27a3c0	-0.1637106

layer1.1.running_mean f4 [16]
0	0x3e4982e7	0.19678842
1	0x3e502f61	0.20330574
2	0xbfa81df7	-1.3134145
3	0xbef93bb2	-0.48678356
4	0xbf51e103	-0.81983966
5	0xbf2987ca	-0.6622282
6	0xbd054038	-0.032531947
7	0x3dcc4578	0.099741876
8	0xbec60626	-0.38676566
9	0x3e072966	0.13199386
10	0x3e55f117	0.2089275
11	0x3f9046d8	1.127162
12	0x3f17e468	0.59332895
13	0xbdb16804	-0.086624175
14	0xbe4aec24	-0.19816643
15	0xbdd2d329	-0.10294182

layer1.1.running_var f4 [16]
0	0x3e3dbd4d	0.18529244
1	0x3d163079	0.03666732
2	0x3eb41aa0	0.35176563
3	0x3d8daa93	0.069173
4	0x3e056c78	0.13029659
5	0x3e4fa843	0.2027903
6	0x3b7df70c	0.0038751988
7	0x3cbb28ea	0.022846658
8	0x3d66b54d	0.056325246
9	0x3cb9849e	0.022646245
10	0x3d8f1066	0.0698555
11	0x3ea0c230	0.31398153
12	0x3dd5dba3	0.10442283
13	0x3d4b653e	0.0496571
14	0x3b820147	0.0039674374
15	0x3bf5dbf1	0.0075030257

layer2.0.weight f4 [32, 16, 3, 3]
0	0xbdcc181a	-0.099655345
1	0xbcdeb758	-0.027187034
2	0xbcd48ae9	-0.025945144
3	0xbd83c34c	-0.06433734
4	0x3b18342a	0.0023224452
5	0xbd96094d	-0.07325993
6	0xbdbca897	-0.092118435
7	0xbd4317e5	-0.04763021
8	0xbd54a259	-0.05191264
9	0x3d392e73	0.045210313
10	0x3cc0b194	0.023522176
11	0x3d841db1	0.06450976
12	0xbc1305b4	-0.008973528
13	0x3e013c97	0.1262077
14	0x3c9cdda2	0.019148652
15	0x3d13da00	0.036096573
16	0x3d46ec17	0.048564997
17	0x3d2a42f8	0.041567773
18	0x3d88b1f0	0.06674564
19	0x3d14a28f	0.03628784
20	0x3d34045e	0.043949477
21	0x3d2ce1f8	0.042207688
22	0x3df84db7	0.12124198
23	0x3dc137c0	0.094344616
24	0x3de55aca	0.11198957
25	0x3e308a09	0.17240156
26	0x3d8dc658	0.06922597
27	0x3d67cd81	0.05659247
28	0x3db8e221	0.09027506
29	0x3d2bd8ba	0.041954733
30	0x3ddad13e	0.10684441
31	0x3e6e29ce	0.23258135
32	0x3d9040d2	0.070436135
33	0x3e348a04	0.17630774
34	0x3e76688b	0.24063317
35	0x3d567dad	0.052365948
36	0xbcc29750	-0.023753792
37	0x3df10f02	0.11770441
38	0x3db79edf	0.08965849
39	0x3d913168	0.070895016
40	0x3e1b9ea5	0.15197237
41	0x3df4882c	0.11940035
42	0x3c1499f3	0.0090699075
43	0x3de4ac33	0.11165657
44	0xbcc3ae13	-0.023886716
45	0x3d031c6f	0.03200954
46	0xbc5a8ee2	-0.01333973
47	0x3bc99957	0.0061523127
48	0x3e017170	0.12640929
49	0x3decedb0	0.11568773
50	0x3dcc2aad	0.09969077
51	0x3da05082	0.07827856
52	0x3df2e7ac	0.11860594
53	0x3dae7329	0.08518059
54	0x3eaf0cc5	0.3418943
55	0x3e81fbe5	0.25387493
56	0x3e3e84af	0.18605302
57	0x3dabffb6	0.08398382
58	0x3da7a59b	0.081858836
59	0x3d9071e3	0.07052972
60	0xbc88db6a	-0.016706187
61	0x3e09a928	0.13443434
62	0xbd6d7e91	-0.05798203
63	0xbdc0c1b2	-0.094119444
64	0xbde710cf	-0.11282503
65	0xbc849d6d	-0.016188348
66	0xbd55b144	-0.052171007
67	0xbe147f9f	-0.14501809
68	0xbd1e91b0	-0.038713157
69	0x3cd447eb	0.0259132
70	0xbd94133b	-0.072302304
71	0x3d0cd174	0.034379438
72	0xbd28c9a5	-0.04120793
73	0xbd42a315	-0.04751881
74	0xbd27c007	-0.040954616
75	0xbd14f573	-0.03636689
76	0x3dc23fd1	0.09484828
77	0x3d4e6064	0.050384894
78	0x3d01a449	0.031650815
79	0x3dbb0f20	0.09133744
80	0x3d47f1b5	0.048814494
81	0xbb8cbed7	-0.004295211
82	0xbd696eca	-0.056990422
83	0xbc4ea697	-0.01261296
84	0xbd904156	-0.07043712
85	0xbe009dd5	-0.12560208
86	0xbdf29976	-0.118456766
87	0xbdf1d727	-0.11808615
88	0x3d7ee521	0.062230233
89	0xbb9c214d	-0.004764712
90	0xbcd578b3	-0.02605853
91	0xbdac7e11	-0.08422483
92	0xbd588445	-0.052860517
93	0xbe1802ae	-0.14844772
94	0xbd319890	-0.043358386
95	0xbe03afde	-0.12860057
96	0xbd7753b4	-0.06038256
97	0xbd5e6286	-0.054293178
98	0xbdeae8e0	-0.11470199
99	0xbda6116f	-0.08108794
100	0x3d50c118	0.0509654
101	0xbddf9d4e	-0.10918675
102	0x3be769e7	0.007062185
103	0xbd7afa6d	-0.06127398
104	0xbd392886	-0.04520466
105	0xbdde70a1	-0.10861326
106	0x3d84c7c8	0.06483418
107	0x3cb47a15	0.02203087
108	0xbdb3464e	-0.08753644
109	0x3b1d524b	0.002400535
110	0xbdd58ca9	-0.104272194
111	0x3c052582	0.008126618
112	0x3b8d4da0	0.004312232
113	0xbbb11bed	-0.0054049403
114	0xbd690177	-0.056886163
115	0x3cecc85b	0.02890413
116	0x3c045cb1	0.00807874
117	0xbe13dffa	-0.14440909
118	0xbd5e1f2b	-0.054228943
119	0x3c10fb82	0.008849027
120	0xbe108add	-0.14115472
121	0xbdafc153	-0.085817955
122	0xbd914992	-0.070941105
123	0xbcc6c164	-0.024262138
124	0xbde01a7d	-0.10942552
125	0xbe4b973a	-0.19881907
126	0x3e6972f8	0.22797763
127	0x3e8af665	0.2714111
128	0x3e345a26	0.17612514
129	0x3e5198ea	0.20468488
130	0x3e17c2cd	0.14820404
131	0x3e942483	0.28934106
132	0x3bc89fcc	0.006122565
133	0x3ddcf998	0.10789794
134	0x3bc4b56b	0.006003072
135	0x3dde3be1	0.10851265
136	0x3da0df7f	0.078551285
137	0xbc150f46	-0.00909788
138	0x3d110f59	0.035415027
139	0x3d49272e	0.04910963
140	0x3d7a8150	0.06115848
141	0xbd95a299	-0.07306404
142	0xbdeccab6	-0.115621015
143	0xbe5b79d6	-0.21433195
144	0xbcc95796	-0.024577897
145	0xbda77884	-0.081772834
146	0xbd0906fe	-0.033453934
147	0xbda5a06e	-0.0808724
148	0xbe010885	-0.12600906
149	0x3b33fad1	0.002746273
150	0x3d23f9e6	0.040033244
151	0xbdde63b5	-0.10858861
152	0x3d8f28c9	0.06990201
153	0x3da062cd	0.07831345
154	0x3d1abaa0	0.037775636
155	0x3d7db7e6	0.061942957
156	0x3d909849	0.07060296
157	0xbc2ff508	-0.010739572
158	0x3d909576	0.070597574
159	0x3df1a394	0.11798778
160	0x3e19331c	0.14960903
161	0x3e13cbd1	0.14433219
162	0x3c768daa	0.015048424
163	0xbdc3c6f4	-0.09559432
164	0xbdb29867	-0.08720475
165	0xbd86553d	-0.06559227
166	0xbdb391cd	-0.08768044
167	0xbcb4c13c	-0.022064798
168	0xbd2e37b6	-0.0425336
169	0xbcd5b9d6	-0.02608959
170	0xbd4ec847	-0.050483968
171	0xbd897002	-0.06710817
172	0xbd0f8e35	-0.03504773
173	0x3d9f16b1	0.07768
174	0xbd5c81b4	-0.053834632
175	0x3cf116c3	0.029429799
176	0x3d7bc1f4	0.061464265
177	0x3ccd7e17	0.025084538
178	0xbd01911a	-0.03163252
179	0x3cb8eb04	0.022573002
180	0xbde35aee	-0.11101328
181	0xbd97cb52	-0.07411827
182	0xbd397e42	-0.045286424
183	0xbde9c195	-0.11413876
184	0xbe043e40	-0.12914371
185	0xbd369c9c	-0.044582948
186	0xbd02034d	-0.03174143
187	0xbd5a6607	-0.053319957
188	0xbcbb62da	-0.022874285
189	0x3d52dc74	0.05147977
190	0x3d653bc7	0.05596521
191	0x3deced62	0.11568715
192	0x3c57614a	0.013145754
193	0x3d968baa	0.073508576
194	0x3d5e93e4	0.05434026
195	0x3cf0cdf7	0.029395087
196	0x3c8cebde	0.017202314
197	0x3d5c8c5e	0.053844802
198	0xbee5a4ea	-0.44852382
199	0xbea607bf	-0.32427785
200	0xbeb392be	-0.35072893
201	0xbea09d4f	-0.31370017
202	0xbe2ab977	-0.16672312
203	0xbc3eb5c0	-0.011640012
204	0xbedbb0b9	-0.42908266
205	0xbe8a1b71	-0.2697406
206	0x3dc8b273	0.097996615
207	0xbdcceb6a	-0.10005839
208	0x3d40bfaa	0.047057785
209	0x3cdfbb70	0.027311057
210	0xbd8919f6	-0.06694405
211	0xbd876454	-0.06610933
212	0x3da74752	0.081679
213	0xbe094909	-0.13406767
214	0xbd8bdaef	-0.06828868
215	0xbd2abfd5	-0.04168685
216	0xbc324aea	-0.010882119
217	0x3beb5bdb	0.007182581
218	0xbded9d87	-0.116023116
219	0xbd9d0a60	-0.076679945
220	0x3cec4159	0.028839754
221	0xbe0394f4	-0.1284979
222	0xbdcf82ca	-0.10132368
223	0x3d37d313	0.04487903
224	0xbd853ab7	-0.065053396
225	0xbc41482a	-0.01179699
226	0xbcccc76c	-0.024997436
227	0x3d958cc4	0.073022395
228	0xbdb0eba8	-0.08638698
229	0x3d1ed00e	0.038772635
230	0xbc1a142c	-0.009404223
231	0xbd861b4e	-0.06548177
232	0xbde5eb2d	-0.11226497
233	0xbcbf89a2	-0.023381058
234	0xbde86fea	-0.11349471
235	0xbc846fc7	-0.01616658
236	0xbde48329	-0.11157829
237	0x3c519a70	0.012793168
238	0xbd8781bd	-0.066165425
239	0xbb8bd1eb	-0.0042669675
240	0xbd9d2f65	-0.076750554
241	0xbe01bdf8	-0.12670124
242	0x3d9bd52f	0.07609021
243	0x3dd5d2d5	0.10440604
244	0xbcc55baf	-0.02409157
245	0xbc342476	-0.010995021
246	0xbcd08a62	-0.025456611
247	0x3d40bf78	0.0470576
248	0x3df9c086	0.12194924
249	0x3ddb1b6c	0.1069859
250	0x3d87ba8c	0.06627378
251	0x3e22cbc5	0.15898044
252	0xbdab903b	-0.08377119
253	0xbc5b5ebf	-0.013389288
254	0x3e06267d	0.1310062
255	0xbd4cd1ca	-0.050004758

layer2.0.bias f4 [32]
0	0x3d7382c2	0.059450872
1	0x3de9b26f	0.11410987
2	0x3d2222f5	0.03958412
3	0x3c716830	0.014734313
4	0xbdbee9bf	-0.09321927
5	0x3e4ba20e	0.19886038
6	0x3d310613	0.043218683
7	0xbdbae26d	-0.091252185
8	0xbdd0bbda	-0.1019208
9	0xbdd00f04	-0.10159114
10	0x3d44936d	0.04799216
11	0x3dc2fc3c	0.09520766
12	0xbc13265d	-0.0089813145
13	0xbc58031a	-0.013184333
14	0x3d0234ec	0.03178875
15	0xbd556a98	-0.05210361
16	0xbe0185b4	-0.1264866
17	0x3e1e18a0	0.15439081
18	0xbd7ad388	-0.06123689
19	0xbdf18a97	-0.11794012
20	0x3e258a67	0.16166078
21	0xbd131186	-0.035905384
22	0x3d44ff29	0.048094902
23	0xbd6046be	-0.054754965
24	0xbd1a9a06	-0.037744544
25	0x3c437c62	0.011931511
26	0xbdfb22f7	-0.122625284
27	0x3c010d09	0.007876643
28	0x3d408f54	0.04701169
29	0x3d868435	0.06568185
30	0xbd1ee099	-0.03878841
31	0xbdee18b5	-0.11625806

layer2.1.weight f4 [32]
0	0x3f62b534	0.88557744
1	0x3f7a206c	0.9770572
2	0x3f7701f5	0.9648736
3	0x3f7cbc26	0.9872459
4	0x3f604b9e	0.8761538
5	0x3f81afa6	1.0131729
6	0x3f887f58	1.0663862
7	0x3f7160db	0.94288415
8	0x3f849de9	1.036069
9	0x3f6680dc	0.90040374
10	0x3f785ab1	0.97013384
11	0x3f685cf3	0.9076683
12	0x3f6643fc	0.89947486
13	0x3f5624ef	0.83650106
14	0x3f426d0b	0.75947636
15	0x3f7499c8	0.9554715
16	0x3f8c232a	1.0948231
17	0x3f92b6c7	1.1462029
18	0x3f89e227	1.0772141
19	0x3f82f2e6	1.0230377
20	0x3f8b8feb	1.0903295
21	0x3f7e5ed3	0.9936344
22	0x3f700ffd	0.93774396
23	0x3f67a865	0.90491325
24	0x3f69bc8b	0.9130332
25	0x3f821e28	1.0165453
26	0x3f6253e0	0.88409233
27	0x3f670408	0.90240526
28	0x3f91a296	1.1377742
29	0x3f8e4c29	1.1116992
30	0x3f585a4e	0.84512794
31	0x3f851e32	1.039984

layer2.1.bias f4 [32]
0	0xbe56d3b4	-0.20979196
1	0x3cfe29da	0.031025816
2	0xbebca72c	-0.36846292
3	0xbebe89b6	-0.3721444
4	0xbf29fea0	-0.6640415
5	0xbe4d9ea4	-0.20080048
6	0xbe37bdce	-0.17943498
7	0xbf1e9ed1	-0.61961085
8	0xbe3621fa	-0.17786399
9	0xbecabbd4	-0.39596426
10	0xbe58d2af	-0.2117412
11	0xbe5affa7	-0.21386586
12	0xbe398ef8	-0.18120944
13	0xbe60c2bb	-0.21949284
14	0xbdafc85d	-0.08583138
15	0xbf169c59	-0.5883232
16	0xbeea173a	-0.45720845
17	0xbeb28316	-0.34865636
18	0xbe5d361c	-0.21602672
19	0xbe64687b	-0.22305481
20	0xbe028903	-0.12747578
21	0xbe8a0221	-0.2695475
22	0xbed1a638	-0.40947127
23	0xbe205fdf	-0.15661572
24	0x3d57d007	0.052688625
25	0xbdaf1b12	-0.08550085
26	0xbd9ac750	-0.07557547
27	0xbec07ea4	-0.3759662
28	0xbe71cb50	-0.23612714
29	0xbe8ecd60	-0.27891064
30	0xbe93e80a	-0.2888797
31	0xbdd830b9	-0.10556168

layer2.1.running_mean f4 [32]
0	0x3fc66b05	1.550141
1	0xc027e032	-2.6230588
2	0xbf99cb4a	-1.2015164
3	0xbf167073	-0.58765334
4	0xbf8f6b7a	-1.1204674
5	0x3ddf1448	0.1089254
6	0xbf791544	-0.97298074
7	0x4079e757	3.9047449
8	0xc02706a8	-2.6097813
9	0xbf253a39	-0.64541966
10	0xbfa7c404	-1.3106694
11	0xbff7dc5b	-1.9364122
12	0x3e0a7c35	0.13523944
13	0xbfec722a	-1.847234
14	0xc020eaea	-2.514338
15	0x3e9b1348	0.30288148
16	0xbf815404	-1.0103765
17	0xbfc159da	-1.5105546
18	0xbfa899de	-1.3171957
19	0xbf768b6b	-0.96306485
20	0xbfa9fc2a	-1.3280079
21	0xbfa441cc	-1.283258
22	0xbf8cc833	-1.0998596
23	0xbf65dda9	-0.8979135
24	0xc05bc985	-3.4341748
25	0xc01ad0ff	-2.419006
26	0xbff976ae	-1.9489343
27	0xc01c75b3	-2.4446838
28	0xbf7d7e67	-0.99021
29	0xbfbc27b9	-1.4699622
30	0xbef96365	-0.48708645
31	0xbf901f8d	-1.1259629

layer2.1.running_var f4 [32]
0	0x40cd3527	6.4127383
1	0x40dca17b	6.894712
2	0x3fc825cf	1.5636538
3	0x3f64a8c2	0.89320004
4	0x3fa74933	1.3069214
5	0x3ffb4232	1.9629576
6	0x4031cb80	2.7780457
7	0x40b36167	5.60564
8	0x4084ed8a	4.1539965
9	0x3fbed8dc	1.490993
10	0x40290f7a	2.6415696
11	0x40550de1	3.328972
12	0x4042f1e6	3.0460143
13	0x40989918	4.768688
14	0x40885914	4.260874
15	0x3fc6f958	1.5544844
16	0x3fe7fea0	1.812458
17	0x40d439d1	6.6320577
18	0x3fe93479	1.8219138
19	0x408b54ec	4.3541164
20	0x4010fbbf	2.2653654
21	0x4006ce57	2.106344
22	0x3fb0eba7	1.3821915
23	0x3fffc78f	1.9982775
24	0x40e23152	7.0685205
25	0x4076c8a6	3.8559966
26	0x400be302	2.1857305
27	0x40dc8f28	6.892475
28	0x40caba97	6.335277
29	0x3fd8eb5a	1.6946824
30	0x4084b4f4	4.147089
31	0x4024cf7e	2.5751643

layer3.0.weight f4 [64, 32, 3, 3]
0	0x3db42771	0.08796585
1	0x3d9e843d	0.07740066
2	0x3e452b34	0.19254762
3	0xbbc0ba46	-0.0058815805
4	0x3c9f60fc	0.019455425
5	0x3e0cffd6	0.13769469
6	0x3d9b5955	0.07585398
7	0xbd3158d2	-0.043297596
8	0xbb7a7fef	-0.0038223227
9	0x3d6f85b5	0.058477122
10	0x3e183596	0.14864191
11	0x3e1d521c	0.15363353
12	0xbcaa916b	-0.020821294
13	0x3e458e41	0.19292547
14	0xbc9b3c04	-0.018949516
15	0x3d0c6f96	0.034286104
16	0xbbc1279a	-0.0058946135
17	0xbdc45be7	-0.095878415
18	0x3e1fb8c7	0.1559783
19	0x3dd1dfeb	0.10247787
20	0x3e95daed	0.2926859
21	0x3e40a2bc	0.18812078
22	0x3e2bb418	0.16767919
23	0x3e2ff5bc	0.17183584
24	0x3e69ae8a	0.22820488
25	0x3e4f1cdd	0.20225854
26	0x3df61b1a	0.12016888
27	0xbe4877f2	-0.19577006
28	0xbda546c4	-0.08070138
29	0x3d816354	0.063177735
30	0xbdd7388e	-0.10508834
31	0xbd1acd3b	-0.03779338
32	0x3d65f2d5	0.056139786
33	0xbd9d68f6	-0.07686035
34	0xbdd5181d	-0.1040499
35	0xbc53ea5a	-0.012934292
36	0x3d837af2	0.06419934
37	0x3c5b9e17	0.013404391
38	0x3e018165	0.12647016
39	0x3d5db240	0.05412507
40	0x3d051b28	0.0324966
41	0x3e114916	0.14188036
42	0x3df08768	0.11744577
43	0xbd8119ab	-0.06303724
44	0x3e0d2d7a	0.13786879
45	0x3e27a316	0.16370806
46	0x3e498c42	0.1968241
47	0x3ea5b59e	0.32365125
48	0x3e8a82f9	0.2705305
49	0x3e4bfb0e	0.19919989
50	0x3e70a6cc	0.23501128
51	0x3ea6eb35	0.32601324
52	0x3e05be26	0.13060817
53	0x3c291f31	0.010322378
54	0x3de30160	0.11084247
55	0xbcc4f3c5	-0.02404202
56	0xbc69abb1	-0.014262126
57	0x3dd5cd23	0.10439517
58	0x3d15dbcf	0.03658658
59	0xbd09e22a	-0.033662952
60	0xbbf2d937	-0.007411148
61	0x3dd5f1aa	0.104464844
62	0x3cb2b0cf	0.021812825
63	0x3e614de8	0.22002375
64	0x3d9e535b	0.077307425
65	0x3e9786cc	0.2959503
66	0x3e491a1e	0.19638869
67	0x3e39718e	0.18109724
68	0x3e713f34	0.23559266
69	0x3e602dee	0.21892521
70	0x3d2ff3a0	0.04295695
71	0x3e48c059	0.19604625
72	0x3bf77ad5	0.0075524845
73	0xbae3d3e2	-0.0017381872
74	0x3dcb9705	0.09940914
75	0xbcc9bbbe	-0.024625655
76	0xbb24a308	-0.0025121588
77	0x3ca09d27	0.019606186
78	0xbc5044b5	-0.0127116935
79	0xbdc65545	-0.096842326
80	0x3bd77eda	0.006576401
81	0x3e19a7bb	0.1500539
82	0x3e26c719	0.16286887
83	0x3e8250a0	0.25452137
84	0xbd1b4e9a	-0.037916757
85	0x3e23c288	0.15992177
86	0x3bd7151c	0.0065637957
87	0x3e1f7e86	0.15575609
88	0x3d4498f1	0.04799742
89	0x3e26d914	0.16293746
90	0xbda867e8	-0.082229435
91	0x3cd52b15	0.02602152
92	0xbd471e9a	-0.04861317
93	0xbe0de5ad	-0.13857146
94	0xbd8f695e	-0.07002519
95	0xbe004519	-0.12526359
96	0xbd6a8bc1	-0.057262186
97	0xbdd1761e	-0.10227607
98	0x3d8ceb0d	0.0688077
99	0x3ce4e2f5	0.027940253
100	0xbc84c10d	-0.016205335
101	0x3d5a0d90	0.05323559
102	0x3cdfdbe1	0.027326526
103	0x3d3f8f3f	0.04676747
104	0x3d482f6c	0.04887335
105	0xbd8d7385	-0.06906799
106	0x3dd4fae8	0.10399419
107	0x3e137fc0	0.14404202
108	0x3dae3aec	0.08507332
109	0xbd68cfab	-0.056838673
110	0xbe17f477	-0.1483935
111	0x3d7210d5	0.059098084
112	0x3d631168	0.05543652
113	0xbd1f5aef	-0.03890508
114	0x3d98899c	0.07448122
115	0x3e285ab8	0.16440856
116	0x3d7ffe3f	0.062498327
117	0xbceb6611	-0.028735192
118	0x3bbb1de1	0.005710349
119	0xbe0b4c7a	-0.13603392
120	0xbdd21045	-0.102570094
121	0xbd2ed67a	-0.04268501
122	0xbd3b22b3	-0.04568739
123	0xbd8fec86	-0.07027535
124	0x3d1c20ba	0.038117148
125	0x3d680529	0.056645546
126	0x3d884a93	0.06654849
127	0x3d65b123	0.056077134
128	0x3e407c31	0.18797375
129	0x3d964322	0.07337023
130	0x3d86525d	0.06558678
131	0x3de2e6de	0.11079191
132	0x3db3014f	0.08740484
133	0x3dbe1a5c	0.092823714
134	0xbd160be9	-0.036632452
135	0x3d186b0d	0.037211467
136	0x3cb6d1b7	0.022316797
137	0x3e1da327	0.15394269
138	0x3dade5e3	0.08491113
139	0x3de0e6d7	0.10981529
140	0x3e01c6b9	0.12673463
141	0xbd033af2	-0.032038637
142	0x3ad45fa2	0.0016202817
143	0x3d253d3d	0.040341605
144	0xbcdd43de	-0.0270099
145	0xbdcb1963	-0.099169515
146	0xbd317883	-0.04332782
147	0xbe13bcb0	-0.14427447
148	0xbdd15e8f	-0.10223114
149	0xbe0d122d	-0.13776465
150	0xbe291239	-0.16510858
151	0xbd98be42	-0.07458164
152	0xbe1dbe65	-0.15404661
153	0xbe2bd54b	-0.16780584
154	0xbd6eda47	-0.058313634
155	0xbe0031ac	-0.12518948
156	0xbe405111	-0.18780924
157	0xbe4947e0	-0.19656324
158	0xbd941bb7	-0.07231849
159	0xbe70c4ab	-0.23512523
160	0xbe27cf3e	-0.1638765
161	0xbe183cd0	-0.14866948
162	0x3e098c41	0.13432409
163	0x3e412625	0.18862207
164	0x3df4ae61	0.11947323
165	0xbc91b8e5	-0.01778836
166	0x3d990025	0.07470731
167	0x3de15cff	0.11004066
168	0x3d4baed4	0.049727276
169	0x3de8ea46	0.11372809
170	0x3e4b61eb	0.19861571
171	0xbdb555d1	-0.08854259
172	0x3d665e88	0.056242496
173	0xbc19236e	-0.009346826
174	0xbd913553	-0.07090249
175	0x3d433734	0.047660068
176	0x3d51c63d	0.051214445
177	0xbdbca06e	-0.09210287
178	0xbcc63ada	-0.024197984
179	0x3e075b7a	0.1321849
180	0x3e63cc2d	0.22245856
181	0x3deb7104	0.114961654
182	0x3d8ab391	0.06772531
183	0x3c1682b0	0.009186432
184	0x3e224d1c	0.15849727
185	0xbd6b936d	-0.057513643
186	0x3dba263b	0.09089323
187	0x3e43c095	0.19116433
188	0xbab09f4f	-0.0013475212
189	0x3dddcb66	0.10829811
190	0xbd94eeb8	-0.072720945
191	0xbe16a429	-0.1471106
192	0xba9010ea	-0.0010991369
193	0x3e143110	0.14471841
194	0xbdba92b8	-0.09110016
195	0xbde67d1e	-0.11254333
196	0x3e564599	0.20924987
197	0x3e342718	0.17593038
198	0x3ba4d010	0.005029686
199	0xbd981584	-0.07425979
200	0xbc6b1564	-0.014348362
201	0xbded85fa	-0.115978196
202	0xbbb3a4ee	-0.0054823076
203	0xbd6cfe63	-0.05785979
204	0xbd031ead	-0.032011677
205	0xba8c00b8	-0.0010681367
206	0x3c60970e	0.013707889
207	0x3db1f372	0.08689012
208	0xbcad4d63	-0.021155065
209	0xbc3de26c	-0.011589628
210	0x3d7b149c	0.06129895
211	0x3d193c75	0.037411172
212	0xbdc087f9	-0.09400935
213	0x3dafb9d7	0.08580368
214	0x3e42a51f	0.19008301
215	0x3cff6f00	0.031180859
216	0x3ddfe503	0.109323524
217	0xbcb46eec	-0.022025548
218	0xbe006984	-0.12540251
219	0x3d9da3ce	0.07697259
220	0x3e14f865	0.1454788
221	0xbd0f2a68	-0.03495255
222	0x3cbb58a2	0.022869412
223	0x3e083e94	0.13305122
224	0x3d156bc4	0.036479726
225	0x3e09e8be	0.1346769
226	0x3e1bd091	0.1521628
227	0x3e462a18	0.19351995
228	0x3e093f1f	0.13402985
229	0x3da3c031	0.07995642
230	0x3d324629	0.04352394
231	0xbd25ff45	-0.040526647
232	0x3d2ec77b	0.04267071
233	0xbd337847	-0.043815877
234	0xbcc587a4	-0.02411253
235	0x3d046025	0.032318253
236	0x3d4d0d0d	0.050061274
237	0xbc601a83	-0.013678196
238	0x3e2d9195	0.16950066
239	0x3e77d115	0.24200852
240	0x3e0ffae5	0.14060552
241	0x3ce79e14	0.02827362
242	0x3e54bf7a	0.20776168
243	0x3e07fb7a	0.13279524
244	0x3e109ce3	0.14122348
245	0x3e069dbc	0.13146108
246	0x3cc9bef1	0.02462718
247	0x3dff30cb	0.124604784
248	0x3dfdbc98	0.12389487
249	0xbe06d2e3	-0.13166384
250	0xbd2cc865	-0.0421833
251	0x3e4165af	0.18886445
252	0xbda81369	-0.08206827
253	0xbe1b8ace	-0.15189669
254	0xbde110fb	-0.10989567
255	0xbe3f9753	-0.1871007

layer3.0.bias f4 [64]
0	0xbc073d89	-0.008254417
1	0xbd888b16	-0.066671535
2	0x3acb7eee	0.0015525499
3	0x3d53452b	0.051579636
4	0xbd96047b	-0.07325073
5	0xbd89eba0	-0.06734395
6	0x3d329221	0.04359639
7	0xbcac57b8	-0.021037921
8	0xbd4a80d8	-0.04943928
9	0xbd6d807e	-0.057983868
10	0xbc0a3761	-0.008436055
11	0x3d5e0276	0.054201566
12	0x3d1c8e4e	0.03822165
13	0x3d8298e7	0.0637682
14	0xbb44e75e	-0.0030045132
15	0x3d444a7f	0.047922608
16	0xbce8cfba	-0.028419364
17	0x3da7ae3f	0.08187532
18	0xbdd1e8e3	-0.10249498
19	0xbd8f7a6b	-0.07005771
20	0xbbc61cdc	-0.006045921
21	0xbbc53f29	-0.006019492
22	0x3c31e3fc	0.010857578
23	0xbd13c717	-0.03607854
24	0xbd58ea09	-0.05295757
25	0x3d1e74b1	0.038685504
26	0x3cef0ce8	0.029180959
27	0x3953e390	0.00020207302
28	0xbc947ab0	-0.018124908
29	0x3cbd5b15	0.02311472
30	0xbb256d0e	-0.0025242004
31	0x3d5ecbec	0.054393694
32	0xbd4db68d	-0.050222922
33	0xbcfb18ee	-0.030651536
34	0x3c321d9d	0.010871318
35	0xbd841ee5	-0.06451205
36	0xbc8043ab	-0.015657267
37	0x3cde6a42	0.027150277
38	0x3d7c4488	0.061588794
39	0x3d0930f1	0.03349394
40	0xbd2e6e2e	-0.042585544
41	0x3cd34778	0.025790915
42	0x3cc39a50	0.023877293
43	0xbce5fe48	-0.028075352
44	0x3d0d06b5	0.034430224
45	0xbc46d082	-0.012134673
46	0xbccf7a3b	-0.025326839
47	0xbd835f88	-0.064147055
48	0x3c7e72bb	0.015530284
49	0xbd9589cd	-0.07301674
50	0xbd07cc10	-0.033153594
51	0x3d9ac82c	0.07557711
52	0x3cc7c858	0.024387524
53	0xbc194c92	-0.009356635
54	0x3d436ab9	0.0477092
55	0xbc581f3b	-0.01319104
56	0x3cf1b78c	0.029506467
57	0x3ca79d99	0.02046089
58	0xbd2ba058	-0.041900963
59	0x3b9b05ba	0.0047309073
60	0x3cdd0d6c	0.02698394
61	0xbca85197	-0.020546718
62	0xbd313c2e	-0.043270282
63	0x3d0a32ef	0.03373998

layer3.1.weight f4 [64]
0	0x3f806bb2	1.0032866
1	0x3f6d2a39	0.9264255
2	0x3f587e5e	0.8456782
3	0x3f7fbaee	0.9989461
4	0x3f860c3e	1.0472486
5	0x3f74ab79	0.95574147
6	0x3f71219d	0.94191915
7	0x3f810e1a	1.0082428
8	0x3f88402f	1.0644587
9	0x3f61c04e	0.8818406
10	0x3f807002	1.0034182
11	0x3f53e9de	0.8277873
12	0x3f88a615	1.0675684
13	0x3f7e742d	0.9939602
14	0x3f641019	0.89087063
15	0x3f3d5cc6	0.73969686
16	0x3f64ef36	0.89427507
17	0x3f8a20ec	1.0791297
18	0x3f83c478	1.0294333
19	0x3f844a35	1.0335146
20	0x3f884544	1.0646138
21	0x3f89ccbf	1.0765609
22	0x3f664234	0.8994477
23	0x3f881a2d	1.0632988
24	0x3f3efece	0.7460755
25	0x3f8e2db0	1.1107693
26	0x3f8093cf	1.0045108
27	0x3f8588c1	1.0432359
28	0x3f823500	1.0172424
29	0x3f84c582	1.0372775
30	0x3f70d681	0.94077307
31	0x3f6fb682	0.9363786
32	0x3f64ed40	0.89424515
33	0x3f7cec2b	0.98797864
34	0x3f7a122c	0.9768398
35	0x3f8a6f0d	1.081514
36	0x3f704c4c	0.9386642
37	0x3f881f6d	1.063459
38	0x3f8a64c9	1.0812007
39	0x3f81c996	1.0139644
40	0x3f814bdb	1.0101274
41	0x3f594813	0.848756
42	0x3f6d9b16	0.9281477
43	0x3f80361c	1.0016513
44	0x3f8b7bef	1.0897197
45	0x3f5e44e6	0.8682388
46	0x3f8ac9f0	1.0842876
47	0x3f66cf84	0.90160394
48	0x3f86a090	1.051775
49	0x3f8755a5	1.0573012
50	0x3f4f49e8	0.80972147
51	0x3f2c9674	0.67417073
52	0x3f86f13d	1.054237
53	0x3f82e409	1.0225841
54	0x3f85ce17	1.0453519
55	0x3f8294c3	1.0201648
56	0x3f7686f1	0.96299654
57	0x3f6c6c0a	0.92352355
58	0x3f81d21c	1.0142245
59	0x3f777ff2	0.96679604
60	0x3f5feda5	0.8747199
61	0x3f81ea3e	1.014961
62	0x3f7ddf5d	0.9916895
63	0x3f8430f6	1.0327442

layer3.1.bias f4 [64]
0	0xbe77bf7c	-0.24194139
1	0xbe450ade	-0.19242427
2	0xbebb39b1	-0.36567453
3	0xbea27a87	-0.31734106
4	0xbe3b26ee	-0.18276569
5	0xbdd97e00	-0.10619736
6	0xbe80aa50	-0.25129938
7	0xbe167cfb	-0.14696114
8	0xbe409cb7	-0.18809782
9	0xbe50a87d	-0.20376773
10	0xbe8222db	-0.25417218
11	0xbe6f5ba0	-0.23374796
12	0xbe3b4bb6	-0.182906
13	0xbe129b63	-0.14317088
14	0xbe51a89c	-0.20474476
15	0xbe8ac059	-0.27099875
16	0xbe92bf06	-0.28661364
17	0xbeabd4c1	-0.33560756
18	0xbe313e9a	-0.17309037
19	0xbe49c6c3	-0.19704728
20	0xbd8a0cce	-0.067407236
21	0xbe61ea3d	-0.22062011
22	0xbe853434	-0.2601639
23	0xbdb289ba	-0.087176755
24	0xbec26cef	-0.37973735
25	0xbdea2d41	-0.11434413
26	0xbe47ab67	-0.19498979
27	0xbe09a634	-0.13442308
28	0xbe9c4e75	-0.30528608
29	0xbe3223c3	-0.17396455
30	0xbe83dba1	-0.257535
31	0xbe8e707d	-0.27820197
32	0xbe9eaad7	-0.30989715
33	0xbeb9c3d6	-0.36282223
34	0xbdfec938	-0.12440723
35	0xbe07b1d3	-0.13251428
36	0xbea7ae31	-0.32750085
37	0xbe0f2b99	-0.13981475
38	0xbec5d439	-0.38638476
39	0xbd9b1a56	-0.075733826
40	0xbd99b91f	-0.07506012
41	0xbe3f3022	-0.18670705
42	0xbe62e9d6	-0.22159514
43	0xbe11ff6c	-0.14257592
44	0xbdb29d7a	-0.087214425
45	0xbe759db3	-0.23985939
46	0xbea8ef3b	-0.32995018
47	0xbe9ea623	-0.30986127
48	0xbe0964f7	-0.13417421
49	0xbde139f8	-0.10997385
50	0xbe6d4506	-0.23170862
51	0xbeb5c620	-0.3550272
52	0xbe7b8c5c	-0.24565262
53	0xbe3e79e6	-0.18601188
54	0xbe3b1d26	-0.18272838
55	0xbe7a171c	-0.24422878
56	0xbed0d711	-0.40789083
57	0xbe47ca61	-0.19510795
58	0xbe23acb5	-0.15983851
59	0xbdd985b5	-0.10621206
60	0xbe9c10dc	-0.30481613
61	0xbde21c2c	-0.110405296
62	0xbe0c7800	-0.13717651
63	0xbd048f73	-0.032363366

layer3.1.running_mean f4 [64]
0	0x408d34f6	4.412715
1	0x3ed2307a	0.4105261
2	0xbfb06ec0	-1.3783798
3	0xc040a312	-3.009953
4	0xbd87b1f8	-0.06625742
5	0xbe441104	-0.19147116
6	0x3d8b4698	0.06800574
7	0xbf7bd35a	-0.9836937
8	0x40400440	3.0002594
9	0xbf044370	-0.516654
10	0x3f2ba2cc	0.67045283
11	0xc064d13f	-3.5752714
12	0x405b5d68	3.427576
13	0x3d9a4b4a	0.075338915
14	0x3d035efa	0.032073
15	0xbd40e52e	-0.047093563
16	0x3e081e5a	0.13292828
17	0x4029b2a0	2.6515274
18	0x4090d04d	4.5254273
19	0x3fc67878	1.5505514
20	0x3f8b9306	1.0904243
21	0x40292bd1	2.6432993
22	0x401c9606	2.4466567
23	0x40112052	2.2675977
24	0x3fb6c8ea	1.4280064
25	0xc02db864	-2.7143793
26	0xbf98aae1	-1.1927148
27	0x3ffdd5d1	1.9830877
28	0x3f4a4b24	0.79020905
29	0xc00be651	-2.1859324
30	0x4007bc62	2.120873
31	0x3e1824c6	0.14857778
32	0x3f81d218	1.014224
33	0x3f376c7a	0.716499
34	0x401e6539	2.4749281
35	0xbf54dfad	-0.831538
36	0xbf81939b	-1.0123171
37	0xbf6f8169	-0.9355684
38	0xc06f973f	-3.7436063
39	0xc07876e6	-3.882257
40	0x3f854ace	1.0413454
41	0x3e1a4d1d	0.15068479
42	0xbf3f2773	-0.7466957
43	0x3eb96bda	0.36215097
44	0xc074a3d1	-3.8224986
45	0xbfc56fe0	-1.5424767
46	0x3eaa83d0	0.3330369
47	0xc0431ff7	-3.048826
48	0x3ee14022	0.43994242
49	0xbf96a682	-1.1769564
50	0xbfb40870	-1.4065075
51	0xc087c280	-4.2424927
52	0xbf8f04e1	-1.1173364
53	0x4003b8fa	2.058165
54	0xbe40e45b	-0.1883711
55	0x4085f8ed	4.1866364
56	0x400647a3	2.0981224
57	0xc083771e	-4.1082907
58	0xc008dd19	-2.1384947
59	0xbf683dfc	-0.9071958
60	0x3f5bde26	0.85885847
61	0xbf9c7e1c	-1.2225986
62	0x40312c80	2.768341
63	0xbfcd6622	-1.6046793

layer3.1.running_var f4 [64]
0	0x40ab18cd	5.3467774
1	0x402bd7e4	2.685052
2	0x4061fb3d	3.5309594
3	0x40485cce	3.1306643
4	0x40271b13	2.6110275
5	0x40e13ba3	7.03853
6	0x404988d5	3.1489766
7	0x40a24000	5.0703125
8	0x4094c3d4	4.648905
9	0x407db0d5	3.963918
10	0x4059754a	3.3977838
11	0x40b8b817	5.772472
12	0x412f7aac	10.967449
13	0x407a71de	3.9132
14	0x40b4d992	5.651559
15	0x40b347d6	5.602519
16	0x41194577	9.579459
17	0x4096e6da	4.71568
18	0x40b11631	5.533959
19	0x4089f341	4.310944
20	0x40ab6cd4	5.3570347
21	0x4046292d	3.0962632
22	0x4083033b	4.0941443
23	0x41437ca5	12.217931
24	0x40f83a82	7.757142
25	0x4095c4d2	4.680276
26	0x405ef113	3.483464
27	0x406d3a24	3.7066736
28	0x4086b76f	4.209892
29	0x409797d0	4.737282
30	0x40a913a5	5.283648
31	0x40a7b964	5.2413807
32	0x4074de90	3.8260841
33	0x4035b6b6	2.8392768
34	0x40c6ba94	6.2102757
35	0x40caab3a	6.3334017
36	0x410a92cc	8.660839
37	0x4095e851	4.684609
38	0x40cab31b	6.3343635
39	0x40ad656c	5.4186306
40	0x411875ab	9.528728
41	0x414805f5	12.501454
42	0x408a6579	4.324887
43	0x40c18de6	6.0485716
44	0x409223a4	4.5668507
45	0x409f3444	4.97513
46	0x405effb0	3.484356
47	0x40af201f	5.472671
48	0x40bdb69c	5.928541
49	0x40991283	4.7835097
50	0x4101a7ba	8.103449
51	0x411ea11a	9.914331
52	0x40cb097d	6.344908
53	0x40e9d397	7.307079
54	0x40520da1	3.2820818
55	0x409abef3	4.835809
56	0x40762f62	3.846642
57	0x40529704	3.2904673
58	0x40538964	3.3052607
59	0x40576858	3.3657436
60	0x40923a89	4.5696454
61	0x40c6a8f5	6.2081246
62	0x40efdb88	7.4955482
63	0x40a36280	5.105774

fc1.weight f4 [10, 576]
0	0x3cc61220	0.024178565
1	0xba2eecd9	-0.00066728663
2	0xbcaf689f	-0.021412192
3	0x3cc3a133	0.023880577
4	0xbb99980f	-0.0046873163
5	0x3bb83653	0.0056217103
6	0xbccaed50	-0.024771363
7	0xbc1a1430	-0.009404227
8	0x3cd84dde	0.026404317
9	0xbc928b25	-0.017888615
10	0x3d0a8fe4	0.03382863
11	0xbcddff5a	-0.0270993
12	0xb8cf87cb	-9.8958226e-05
13	0xbd4483e6	-0.04797735
14	0x3b895e7e	0.0041921725
15	0xbcdc8ebe	-0.026923534
16	0xbcc83604	-0.02443982
17	0xbd1dfbb7	-0.038570132
18	0xbc5779e8	-0.013151623
19	0xbcc57b39	-0.024106609
20	0xbd712ad0	-0.05887872
21	0x3caef9a3	0.02135927
22	0xbceb4100	-0.028717518
23	0xbd6092f6	-0.054827653
24	0xbc77f100	-0.0151331425
25	0xbd0823b7	-0.033237185
26	0x3c979770	0.018504828
27	0xbb1a7d96	-0.002357339
28	0xbd61333d	-0.054980505
29	0x3c9f98fd	0.01948213
30	0xbc32b4d1	-0.010907368
31	0xbc9ea8ac	-0.019367538
32	0x3b919e53	0.0044439225
33	0x3bd14639	0.006386545
34	0x3cacd512	0.021097694
35	0xbc0e44d8	-0.008683406
36	0xbcf0b141	-0.029381396
37	0xbc1314fd	-0.008977172
38	0xbca82caa	-0.02052911
39	0x3d14fdf2	0.036374994
40	0x3cdc108a	0.026863355
41	0x3c81e53a	0.015856374
42	0xbb89d0f5	-0.004205818
43	0xbcebe82c	-0.028797232
44	0x3af32cef	0.001855282
45	0xbd5bcadc	-0.05366026
46	0x3c6a833f	0.014313518
47	0x3cb3d114	0.021950282
48	0xbd688648	-0.056768686
49	0xbcdcc2bb	-0.026948323
50	0xbcb1a8b9	-0.021686899
51	0xbc7c26be	-0.015390096
52	0x3cb87bc8	0.022519961
53	0xbd065be2	-0.03280247
54	0xbc1a80c4	-0.009430114
55	0xbae70d22	-0.0017627815
56	0x3ac7c0b0	0.001523992
57	0xbc57f523	-0.013181004
58	0xbd438d7b	-0.04774235
59	0xbd636e6a	-0.05552522
60	0x3ca28608	0.019839302
61	0xbd21b89c	-0.039482698
62	0xbc92258f	-0.017840175
63	0x3c18e521	0.009331972
64	0xbd0e5c8d	-0.034756232
65	0xbb72c934	-0.0037046196
66	0xbd10ebe2	-0.035381205
67	0x3b2383fb	0.0024950493
68	0xbb5c5e90	-0.00336257
69	0xbbf82e4e	-0.0075738793
70	0x3c8a1ed6	0.016860407
71	0x3cbe3092	0.02321652
72	0xbd31ca08	-0.043405563
73	0xbd02f7f9	-0.031974766
74	0xbca32801	-0.019916536
75	0xbbc1d6d4	-0.005915502
76	0xbb75de3a	-0.003751649
77	0x3cfc2696	0.030780118
78	0x3d0ee010	0.03488165
79	0xbd4dc6e1	-0.050238494
80	0xbc1f77f4	-0.009733189
81	0xbce5339e	-0.027978715
82	0x3c87333d	0.016503925
83	0xbcf1ae59	-0.02950208
84	0xbb903bb9	-0.0044016507
85	0xbd42602e	-0.047455005
86	0xbd091ab2	-0.033472724
87	0x3cd7486a	0.026279647
88	0xbb62ecb6	-0.0034625954
89	0xbcc034d4	-0.02346269
90	0x3c487e5b	0.012237157
91	0xbb41b819	-0.0029559194
92	0xbc255680	-0.010091424
93	0xbc593c73	-0.013259041
94	0xbca5dcc7	-0.020246876
95	0xbcd43e13	-0.025908506
96	0x3c8f3975	0.017483452
97	0xbd112e4f	-0.035444554
98	0x3acc7cb2	0.0015601127
99	0xbd10411e	-0.03521835
100	0xbd485563	-0.048909556
101	0x3b9fce95	0.0048769214
102	0x3b0e6305	0.00217265
103	0x3ab36e70	0.0013689529
104	0x3cc42ea5	0.023948023
105	0xbccba7b0	-0.024860233
106	0xbd0ce5c5	-0.034398813
107	0x3c4c6927	0.012476242
108	0x3c5167df	0.012781112
109	0xbd0d3475	-0.034473855
110	0xbd034f02	-0.03205777
111	0xbb4c8a1b	-0.0031210247
112	0xbcd56977	-0.026051266
113	0xbbb3f71b	-0.0054921038
114	0xbd328609	-0.043584857
115	0x3c0b942e	0.0085192155
116	0x3cc91972	0.024548266
117	0xbca5e201	-0.020249369
118	0x3c4ae5e7	0.012383915
119	0xbca9ee9f	-0.020743666
120	0x3cde1c73	0.027113175
121	0xbd20b215	-0.039232332
122	0xbd45451e	-0.04816162
123	0xbd129922	-0.03579057
124	0x3c5a0362	0.013306471
125	0xbcebdc0b	-0.028791448
126	0xbd3a7dd3	-0.04553015
127	0x3cbf777d	0.023372406
128	0x3cdbd8db	0.026836803
129	0x3c72aea1	0.014812143
130	0x3ae877c4	0.0017735888
131	0xbba050bc	-0.004892437
132	0x3a6e536f	0.0009091412
133	0xbd090915	-0.033455927
134	0xbd392cc7	-0.04520872
135	0x3b8c27b5	0.0042771944
136	0xbc9358e0	-0.017986715
137	0x3b363ff2	0.002780911
138	0x3b4f1210	0.003159646
139	0x3a1b3694	0.00059209135
140	0xbcbbeb27	-0.022939278
141	0xbcff1208	-0.031136528
142	0x3c80c612	0.015719447
143	0xbcce92a0	-0.0252164
144	0xbce8a7e7	-0.028400375
145	0xbcda9270	-0.026681155
146	0x3cc0e51a	0.023546744
147	0x3c1fa7c3	0.009744587
148	0x3ca0424d	0.019562865
149	0xbcbf9f8c	-0.023391508
150	0xbcad1fa3	-0.02113325
151	0x3bc7c317	0.0060962546
152	0xbd27c34b	-0.04095773
153	0x3cfad42d	0.030618751
154	0x3c003b8d	0.007826698
155	0xbc06de58	-0.008231722
156	0xbc9722d5	-0.018449226
157	0xbbae0d50	-0.0053116456
158	0x3b5c8dd5	0.0033653874
159	0xbcc76718	-0.024341151
160	0xbca4c487	-0.020113243
161	0x3ad7870a	0.0016443443
162	0xbd1442e3	-0.0361966
163	0x3c039728	0.008031644
164	0x3c114810	0.008867279
165	0xbd02ff18	-0.031981558
166	0xbbc48310	-0.005997069
167	0xbd1fa684	-0.03897716
168	0xbcb1f9d4	-0.021725573
169	0xbd749352	-0.059710808
170	0xbc896d98	-0.016775891
171	0xbca35261	-0.019936742
172	0xbd1477ce	-0.036247067
173	0xbc9831ae	-0.018578377
174	0xbcf448a0	-0.029819787
175	0xbd4e9bc8	-0.050441533
176	0xbbc749f1	-0.0060818125
177	0x3ccc3d14	0.024931468
178	0xbd7936e5	-0.060843367
179	0xbc6aac01	-0.0143232355
180	0xbd17316c	-0.036912367
181	0x3c264077	0.010147206
182	0x3c168c23	0.009188685
183	0x3d08ef64	0.033431426
184	0x3c623fea	0.013809184
185	0xbcf62247	-0.030045642
186	0xbd356301	-0.04428387
187	0x3cb5ba8a	0.022183675
188	0xbd0a8628	-0.033819348
189	0xbc87778b	-0.016536495
190	0xbc8f9b48	-0.017530099
191	0x3ce7e04e	0.028305199
192	0x3b0193f7	0.0019772032
193	0xbbf040c4	-0.0073319394
194	0xbd1b37ce	-0.037895016
195	0x3b2cc231	0.0026360864
196	0x3cb138a5	0.021633456
197	0x3b4deaf8	0.003142057
198	0x3c9fc82f	0.019504635
199	0x3d1e3861	0.038627986
200	0x3cefadcb	0.029257676
201	0x3c2c3220	0.010509998
202	0x3d064978	0.03278491
203	0x3d03a844	0.032142892
204	0xbd08275b	-0.033240657
205	0xbc94c2b4	-0.018159248
206	0xbcdf8cd1	-0.027288826
207	0x3d45de6f	0.048307832
208	0x3cda74d2	0.026667032
209	0x3c8b2962	0.016987506
210	0xbc907066	-0.01763172
211	0x3d4ed4ca	0.0504959
212	0xbd059ae6	-0.032618426
213	0xbcd29b81	-0.025708916
214	0x3b3c89f2	0.0028768745
215	0x3c4b01a5	0.012390529
216	0xbcc2bc00	-0.023771286
217	0xbca18bf5	-0.019720057
218	0xbb7b8b71	-0.0038382674
219	0xba6bfea6	-0.0009002484
220	0xb8f001dc	-0.00011444438
221	0x3cd65124	0.026161738
222	0x3bb76085	0.005596223
223	0x3b95cc8b	0.0045715026
224	0xbd38be27	-0.04510322
225	0xbc0e21a7	-0.0086750155
226	0xbd0d1644	-0.034445062
227	0x3cf537b8	0.029933795
228	0x3c75349b	0.014966155
229	0xbcf9850f	-0.030458955
230	0xbc8b1dc3	-0.016981965
231	0x3c03afd3	0.008037525
232	0x3d05aae8	0.032633692
233	0xbd047056	-0.032333694
234	0xbd0a6196	-0.03378447
235	0xbcef36f2	-0.029201005
236	0xbd0fcf93	-0.035110068
237	0xbc9df103	-0.019279962
238	0xbcc2d517	-0.02378325
239	0x3be7f2ed	0.0070785196
240	0xbd01f195	-0.03172453
241	0x3c9198dc	0.017773084
242	0x3c0f8071	0.00875865
243	0xbba20749	-0.004944716
244	0x3cc25fcc	0.02372732
245	0xbd3eb0e5	-0.04655542
246	0xbcdee010	-0.02720645
247	0xbd4e4c20	-0.050365567
248	0xbce8ebd0	-0.028432757
249	0xbd1a6372	-0.037692495
250	0x3c8a781f	0.016902981
251	0xbbe09383	-0.0068535223
252	0xbc9a196a	-0.018810946
253	0xbc04f263	-0.00811443
254	0xbc5b5cee	-0.013388855
255	0xbd326b3a	-0.04355929

fc1.bias f4 [10]
0	0x3cc5d99c	0.024151616
1	0x3c2bb29c	0.0104795955
2	0xbd49bfe9	-0.049255285
3	0x3c73bafb	0.014876123
4	0x3dc22b4e	0.09480916
5	0xbd4ae7fe	-0.04953765
6	0x3b5e559f	0.0033925546
7	0xbcbf3316	-0.02333979
8	0xbc105e62	-0.008811565
9	0xbd19b661	-0.037527446

fc2.weight f4 [2, 10]
0	0xbe5481d7	-0.20752655
1	0xbe947fa3	-0.2900363
2	0xbe515abb	-0.20444767
3	0x3d6fa5da	0.058507778
4	0xbd95ab2c	-0.07308039
5	0x3c9758c4	0.018474944
6	0xbd215df8	-0.039396256
7	0x3d0a4d11	0.033764903
8	0xbd03f3f5	-0.032215077
9	0xbdb97293	-0.090550564
10	0xbe211220	-0.1572957
11	0xbe99673c	-0.29961574
12	0x3e61423d	0.21997924
13	0x3e8a76c3	0.27043733
14	0xbeb91fbd	-0.36157027
15	0xbcb6e7d4	-0.022327341
16	0xbd084614	-0.033269957
17	0x3de62faa	0.1123956
18	0x3ebc954e	0.3683266
19	0x3e167314	0.14692336

fc2.bias f4 [2]
0	0x3dc56ea3	0.09640243
1	0xbe5bbb0b	-0.2145807
